…
I0223 16:28:25.151895  1797 static_pose_v2.cpp:252] batch size: 1
I0223 16:28:25.151901  1797 static_pose_v2.cpp:257] Opening file /home/ddk/malong/dataset/person.torso/demo/vision/files/mude.images.per.tor.bbox.txt
I0223 16:28:25.174995  1797 net.cpp:43] Initializing net from parameters: 
name: "HumanPoseEstimation"
input: "data"
input: "aux_info"
input: "gt_pose_coords"
state {
  phase: TEST
}
input_shape {
  dim: 5
  dim: 3
  dim: 100
  dim: 100
}
input_shape {
  dim: 5
  dim: 5
  dim: 1
  dim: 1
}
input_shape {
  dim: 5
  dim: 28
  dim: 1
  dim: 1
}
layer {
  name: "torso_masks"
  type: "CoordsToBboxesMasks"
  bottom: "gt_pose_coords"
  bottom: "aux_info"
  top: "torso_masks"
  coord_to_bbox_masks_param {
    top_id: 9
    bottom_id: 13
    value: 255
    top_id2: 9
    bottom_id2: 13
  }
}
layer {
  name: "concat_data"
  type: "Concat"
  bottom: "data"
  bottom: "torso_masks"
  top: "data_bank1"
  concat_param {
    concat_dim: 1
  }
}
layer {
  name: "data_bank2"
  type: "Resize"
  bottom: "data_bank1"
  top: "data_bank2"
  resize_param {
    height_fac: 0.707
    width_fac: 0.707
  }
}
layer {
  name: "conv1_bank1"
  type: "Convolution"
  bottom: "data_bank1"
  top: "conv1_bank1"
  param {
    lr_mult: 0
    decay_mult: 0
  }
  param {
    lr_mult: 0
    decay_mult: 0
  }
  convolution_param {
    num_output: 128
    pad: 2
    kernel_size: 5
    weight_filler {
      type: "gaussian"
      std: 0.01
    }
    bias_filler {
      type: "constant"
      value: 0
    }
  }
}
layer {
  name: "relu1_bank1"
  type: "ReLU"
  bottom: "conv1_bank1"
  top: "conv1_bank1"
}
layer {
  name: "pool1_bank1"
  type: "Pooling"
  bottom: "conv1_bank1"
  top: "pool1_bank1"
  pooling_param {
    pool: MAX
    kernel_size: 2
    stride: 2
  }
}
layer {
  name: "conv2_bank1"
  type: "Convolution"
  bottom: "pool1_bank1"
  top: "conv2_bank1"
  param {
    lr_mult: 0
    decay_mult: 0
  }
  param {
    lr_mult: 0
    decay_mult: 0
  }
  convolution_param {
    num_output: 128
    pad: 2
    kernel_size: 5
    weight_filler {
      type: "gaussian"
      std: 0.01
    }
    bias_filler {
      type: "constant"
      value: 0
    }
  }
}
layer {
  name: "relu2_bank1"
  type: "ReLU"
  bottom: "conv2_bank1"
  top: "conv2_bank1"
}
layer {
  name: "pool2_bank1"
  type: "Pooling"
  bottom: "conv2_bank1"
  top: "pool2_bank1"
  pooling_param {
    pool: MAX
    kernel_size: 2
    stride: 2
  }
}
layer {
  name: "conv3_bank1"
  type: "Convolution"
  bottom: "pool2_bank1"
  top: "conv3_bank1"
  param {
    lr_mult: 0
    decay_mult: 0
  }
  param {
    lr_mult: 0
    decay_mult: 0
  }
  convolution_param {
    num_output: 128
    pad: 2
    kernel_size: 5
    weight_filler {
      type: "gaussian"
      std: 0.01
    }
    bias_filler {
      type: "constant"
      value: 0
    }
  }
}
layer {
  name: "relu3_bank1"
  type: "ReLU"
  bottom: "conv3_bank1"
  top: "conv3_bank1"
}
layer {
  name: "pool3_bank1"
  type: "Pooling"
  bottom: "conv3_bank1"
  top: "pool3_bank1"
  pooling_param {
    pool: MAX
    kernel_size: 2
    stride: 2
  }
}
layer {
  name: "conv4_1_bank1"
  type: "Convolution"
  bottom: "pool3_bank1"
  top: "conv4_1_bank1"
  param {
    lr_mult: 0
    decay_mult: 0
  }
  param {
    lr_mult: 0
    decay_mult: 0
  }
  convolution_param {
    num_output: 512
    pad: 2
    kernel_size: 5
    weight_filler {
      type: "gaussian"
      std: 0.01
    }
    bias_filler {
      type: "constant"
      value: 0
    }
  }
}
layer {
  name: "relu4_1_bank1"
  type: "ReLU"
  bottom: "conv4_1_bank1"
  top: "conv4_1_bank1"
}
layer {
  name: "conv4_2_bank1"
  type: "Convolution"
  bottom: "conv4_1_bank1"
  top: "conv4_2_bank1"
  param {
    lr_mult: 0
    decay_mult: 0
  }
  param {
    lr_mult: 0
    decay_mult: 0
  }
  convolution_param {
    num_output: 512
    pad: 4
    kernel_size: 9
    weight_filler {
      type: "gaussian"
      std: 0.01
    }
    bias_filler {
      type: "constant"
      value: 0
    }
  }
}
layer {
  name: "relu4_2_bank1"
  type: "ReLU"
  bottom: "conv4_2_bank1"
  top: "conv4_2_bank1"
}
layer {
  name: "conv1_bank2"
  type: "Convolution"
  bottom: "data_bank2"
  top: "conv1_bank2"
  param {
    lr_mult: 0
    decay_mult: 0
  }
  param {
    lr_mult: 0
    decay_mult: 0
  }
  convolution_param {
    num_output: 128
    pad: 2
    kernel_size: 5
    weight_filler {
      type: "gaussian"
      std: 0.01
    }
    bias_filler {
      type: "constant"
      value: 0
    }
  }
}
layer {
  name: "relu1_bank2"
  type: "ReLU"
  bottom: "conv1_bank2"
  top: "conv1_bank2"
}
layer {
  name: "pool1_bank2"
  type: "Pooling"
  bottom: "conv1_bank2"
  top: "pool1_bank2"
  pooling_param {
    pool: MAX
    kernel_size: 2
    stride: 2
  }
}
layer {
  name: "conv2_bank2"
  type: "Convolution"
  bottom: "pool1_bank2"
  top: "conv2_bank2"
  param {
    lr_mult: 0
    decay_mult: 0
  }
  param {
    lr_mult: 0
    decay_mult: 0
  }
  convolution_param {
    num_output: 128
    pad: 2
    kernel_size: 5
    weight_filler {
      type: "gaussian"
      std: 0.01
    }
    bias_filler {
      type: "constant"
      value: 0
    }
  }
}
layer {
  name: "relu2_bank2"
  type: "ReLU"
  bottom: "conv2_bank2"
  top: "conv2_bank2"
}
layer {
  name: "pool2_bank2"
  type: "Pooling"
  bottom: "conv2_bank2"
  top: "pool2_bank2"
  pooling_param {
    pool: MAX
    kernel_size: 2
    stride: 2
  }
}
layer {
  name: "conv3_bank2"
  type: "Convolution"
  bottom: "pool2_bank2"
  top: "conv3_bank2"
  param {
    lr_mult: 0
    decay_mult: 0
  }
  param {
    lr_mult: 0
    decay_mult: 0
  }
  convolution_param {
    num_output: 128
    pad: 2
    kernel_size: 5
    weight_filler {
      type: "gaussian"
      std: 0.01
    }
    bias_filler {
      type: "constant"
      value: 0
    }
  }
}
layer {
  name: "relu3_bank2"
  type: "ReLU"
  bottom: "conv3_bank2"
  top: "conv3_bank2"
}
layer {
  name: "pool3_bank2"
  type: "Pooling"
  bottom: "conv3_bank2"
  top: "pool3_bank2"
  pooling_param {
    pool: MAX
    kernel_size: 2
    stride: 2
  }
}
layer {
  name: "conv4_1_bank2"
  type: "Convolution"
  bottom: "pool3_bank2"
  top: "conv4_1_bank2"
  param {
    lr_mult: 0
    decay_mult: 0
  }
  param {
    lr_mult: 0
    decay_mult: 0
  }
  convolution_param {
    num_output: 512
    pad: 2
    kernel_size: 5
    weight_filler {
      type: "gaussian"
      std: 0.01
    }
    bias_filler {
      type: "constant"
      value: 0
    }
  }
}
layer {
  name: "relu4_1_bank2"
  type: "ReLU"
  bottom: "conv4_1_bank2"
  top: "conv4_1_bank2"
}
layer {
  name: "conv4_2_bank2"
  type: "Convolution"
  bottom: "conv4_1_bank2"
  top: "conv4_2_bank2"
  param {
    lr_mult: 0
    decay_mult: 0
  }
  param {
    lr_mult: 0
    decay_mult: 0
  }
  convolution_param {
    num_output: 512
    pad: 4
    kernel_size: 9
    weight_filler {
      type: "gaussian"
      std: 0.01
    }
    bias_filler {
      type: "constant"
      value: 0
    }
  }
}
layer {
  name: "relu4_2_bank2"
  type: "ReLU"
  bottom: "conv4_2_bank2"
  top: "conv4_2_bank2"
}
layer {
  name: "re_conv4_2_bank2"
  type: "Resize"
  bottom: "conv4_2_bank2"
  bottom: "conv4_2_bank1"
  top: "re_conv4_2_bank2"
}
layer {
  name: "merge_banks"
  type: "Eltwise"
  bottom: "conv4_2_bank1"
  bottom: "re_conv4_2_bank2"
  top: "conv4"
  eltwise_param {
    operation: SUM
  }
}
layer {
  name: "spatial_drop"
  type: "SpatialDropout"
  bottom: "conv4"
  top: "conv4"
  spatial_dropout_param {
    dropout_ratio: 0.5
  }
}
layer {
  name: "conv5"
  type: "Convolution"
  bottom: "conv4"
  top: "conv5"
  param {
    lr_mult: 0
    decay_mult: 0
  }
  param {
    lr_mult: 0
    decay_mult: 0
  }
  convolution_param {
    num_output: 256
    kernel_size: 1
    weight_filler {
      type: "gaussian"
      std: 0.01
    }
    bias_filler {
      type: "constant"
      value: 0
    }
  }
}
layer {
  name: "relu5"
  type: "ReLU"
  bottom: "conv5"
  top: "conv5"
}
layer {
  name: "conv6"
  type: "Convolution"
  bottom: "conv5"
  top: "conv6"
  param {
    lr_mult: 0
    decay_mult: 0
  }
  param {
    lr_mult: 0
    decay_mult: 0
  }
  convolution_param {
    num_output: 256
    kernel_size: 1
    weight_filler {
      type: "gaussian"
      std: 0.01
    }
    bias_filler {
      type: "constant"
      value: 0
    }
  }
}
layer {
  name: "relu6"
  type: "ReLU"
  bottom: "conv6"
  top: "conv6"
}
layer {
  name: "conv7"
  type: "Convolution"
  bottom: "conv6"
  top: "conv7"
  param {
    lr_mult: 0
    decay_mult: 0
  }
  param {
    lr_mult: 0
    decay_mult: 0
  }
  convolution_param {
    num_output: 19
    kernel_size: 1
    stride: 1
    weight_filler {
      type: "gaussian"
      std: 0.01
    }
    bias_filler {
      type: "constant"
      value: 0
    }
  }
}
layer {
  name: "re_conv7"
  type: "Resize"
  bottom: "conv7"
  bottom: "data_bank1"
  top: "re_conv7"
}
layer {
  name: "pred_coords_from_maps"
  type: "CoordsFromHeatMaps"
  bottom: "re_conv7"
  top: "pred_pose_coords"
}
layer {
  name: "pred_rescale_pose_coords"
  type: "RescaledPoseCoords"
  bottom: "pred_pose_coords"
  bottom: "aux_info"
  top: "pred_pose_coords"
}
I0223 16:28:25.175456  1797 net.cpp:346] Input 0 -> data
I0223 16:28:25.180024  1797 net.cpp:346] Input 1 -> aux_info
I0223 16:28:25.180068  1797 net.cpp:346] Input 2 -> gt_pose_coords
I0223 16:28:25.180114  1797 layer_factory.hpp:74] Creating layer aux_info_input_1_split
I0223 16:28:25.181040  1797 net.cpp:89] 
I0223 16:28:25.181071  1797 net.cpp:90] Creating Layer aux_info_input_1_split
I0223 16:28:25.181087  1797 net.cpp:386] aux_info_input_1_split <- aux_info
I0223 16:28:25.181113  1797 net.cpp:344] aux_info_input_1_split -> aux_info_input_1_split_0
I0223 16:28:25.181143  1797 net.cpp:344] aux_info_input_1_split -> aux_info_input_1_split_1
I0223 16:28:25.181171  1797 net.cpp:119] Setting up aux_info_input_1_split
I0223 16:28:25.181309  1797 net.cpp:126] Top shape: 5 5 1 1 (25)
I0223 16:28:25.181332  1797 net.cpp:126] Top shape: 5 5 1 1 (25)
I0223 16:28:25.181347  1797 layer_factory.hpp:74] Creating layer torso_masks
I0223 16:28:25.186091  1797 net.cpp:89] 
I0223 16:28:25.186125  1797 net.cpp:90] Creating Layer torso_masks
I0223 16:28:25.186138  1797 net.cpp:386] torso_masks <- gt_pose_coords
I0223 16:28:25.186153  1797 net.cpp:386] torso_masks <- aux_info_input_1_split_0
I0223 16:28:25.186170  1797 net.cpp:344] torso_masks -> torso_masks
I0223 16:28:25.186194  1797 net.cpp:119] Setting up torso_masks
I0223 16:28:25.186910  1797 net.cpp:126] Top shape: 5 1 100 100 (50000)
I0223 16:28:25.186931  1797 layer_factory.hpp:74] Creating layer concat_data
I0223 16:28:25.186954  1797 net.cpp:89] 
I0223 16:28:25.186972  1797 net.cpp:90] Creating Layer concat_data
I0223 16:28:25.186977  1797 net.cpp:386] concat_data <- data
I0223 16:28:25.186985  1797 net.cpp:386] concat_data <- torso_masks
I0223 16:28:25.187000  1797 net.cpp:344] concat_data -> data_bank1
I0223 16:28:25.187011  1797 net.cpp:119] Setting up concat_data
I0223 16:28:25.187029  1797 net.cpp:126] Top shape: 5 4 100 100 (200000)
I0223 16:28:25.187047  1797 layer_factory.hpp:74] Creating layer data_bank1_concat_data_0_split
I0223 16:28:25.187062  1797 net.cpp:89] 
I0223 16:28:25.187067  1797 net.cpp:90] Creating Layer data_bank1_concat_data_0_split
I0223 16:28:25.187072  1797 net.cpp:386] data_bank1_concat_data_0_split <- data_bank1
I0223 16:28:25.187080  1797 net.cpp:344] data_bank1_concat_data_0_split -> data_bank1_concat_data_0_split_0
I0223 16:28:25.187089  1797 net.cpp:344] data_bank1_concat_data_0_split -> data_bank1_concat_data_0_split_1
I0223 16:28:25.187100  1797 net.cpp:344] data_bank1_concat_data_0_split -> data_bank1_concat_data_0_split_2
I0223 16:28:25.187116  1797 net.cpp:119] Setting up data_bank1_concat_data_0_split
I0223 16:28:25.187134  1797 net.cpp:126] Top shape: 5 4 100 100 (200000)
I0223 16:28:25.187156  1797 net.cpp:126] Top shape: 5 4 100 100 (200000)
I0223 16:28:25.187165  1797 net.cpp:126] Top shape: 5 4 100 100 (200000)
I0223 16:28:25.187170  1797 layer_factory.hpp:74] Creating layer data_bank2
I0223 16:28:25.187181  1797 net.cpp:89] 
I0223 16:28:25.187187  1797 net.cpp:90] Creating Layer data_bank2
I0223 16:28:25.187192  1797 net.cpp:386] data_bank2 <- data_bank1_concat_data_0_split_0
I0223 16:28:25.187201  1797 net.cpp:344] data_bank2 -> data_bank2
I0223 16:28:25.187211  1797 net.cpp:119] Setting up data_bank2
I0223 16:28:25.187227  1797 net.cpp:126] Top shape: 5 4 70 70 (98000)
I0223 16:28:25.187237  1797 layer_factory.hpp:74] Creating layer conv1_bank1
I0223 16:28:25.187250  1797 net.cpp:89] 
I0223 16:28:25.187258  1797 net.cpp:90] Creating Layer conv1_bank1
I0223 16:28:25.187263  1797 net.cpp:386] conv1_bank1 <- data_bank1_concat_data_0_split_1
I0223 16:28:25.187271  1797 net.cpp:344] conv1_bank1 -> conv1_bank1
I0223 16:28:25.187284  1797 net.cpp:119] Setting up conv1_bank1
I0223 16:28:25.287847  1797 net.cpp:126] Top shape: 5 128 100 100 (6400000)
I0223 16:28:25.287901  1797 layer_factory.hpp:74] Creating layer relu1_bank1
I0223 16:28:25.287919  1797 net.cpp:89] 
I0223 16:28:25.287924  1797 net.cpp:90] Creating Layer relu1_bank1
I0223 16:28:25.287930  1797 net.cpp:386] relu1_bank1 <- conv1_bank1
I0223 16:28:25.287941  1797 net.cpp:333] relu1_bank1 -> conv1_bank1 (in-place)
I0223 16:28:25.287955  1797 net.cpp:119] Setting up relu1_bank1
I0223 16:28:25.288761  1797 net.cpp:126] Top shape: 5 128 100 100 (6400000)
I0223 16:28:25.288777  1797 layer_factory.hpp:74] Creating layer pool1_bank1
I0223 16:28:25.288799  1797 net.cpp:89] 
I0223 16:28:25.288805  1797 net.cpp:90] Creating Layer pool1_bank1
I0223 16:28:25.288810  1797 net.cpp:386] pool1_bank1 <- conv1_bank1
I0223 16:28:25.288820  1797 net.cpp:344] pool1_bank1 -> pool1_bank1
I0223 16:28:25.288830  1797 net.cpp:119] Setting up pool1_bank1
I0223 16:28:25.289609  1797 net.cpp:126] Top shape: 5 128 50 50 (1600000)
I0223 16:28:25.289621  1797 layer_factory.hpp:74] Creating layer conv2_bank1
I0223 16:28:25.289644  1797 net.cpp:89] 
I0223 16:28:25.289649  1797 net.cpp:90] Creating Layer conv2_bank1
I0223 16:28:25.289654  1797 net.cpp:386] conv2_bank1 <- pool1_bank1
I0223 16:28:25.289664  1797 net.cpp:344] conv2_bank1 -> conv2_bank1
I0223 16:28:25.289674  1797 net.cpp:119] Setting up conv2_bank1
I0223 16:28:25.302582  1797 net.cpp:126] Top shape: 5 128 50 50 (1600000)
I0223 16:28:25.302618  1797 layer_factory.hpp:74] Creating layer relu2_bank1
I0223 16:28:25.302634  1797 net.cpp:89] 
I0223 16:28:25.302639  1797 net.cpp:90] Creating Layer relu2_bank1
I0223 16:28:25.302645  1797 net.cpp:386] relu2_bank1 <- conv2_bank1
I0223 16:28:25.302654  1797 net.cpp:333] relu2_bank1 -> conv2_bank1 (in-place)
I0223 16:28:25.302672  1797 net.cpp:119] Setting up relu2_bank1
I0223 16:28:25.302736  1797 net.cpp:126] Top shape: 5 128 50 50 (1600000)
I0223 16:28:25.302744  1797 layer_factory.hpp:74] Creating layer pool2_bank1
I0223 16:28:25.302757  1797 net.cpp:89] 
I0223 16:28:25.302762  1797 net.cpp:90] Creating Layer pool2_bank1
I0223 16:28:25.302767  1797 net.cpp:386] pool2_bank1 <- conv2_bank1
I0223 16:28:25.302778  1797 net.cpp:344] pool2_bank1 -> pool2_bank1
I0223 16:28:25.302788  1797 net.cpp:119] Setting up pool2_bank1
I0223 16:28:25.302963  1797 net.cpp:126] Top shape: 5 128 25 25 (400000)
I0223 16:28:25.302974  1797 layer_factory.hpp:74] Creating layer conv3_bank1
I0223 16:28:25.302986  1797 net.cpp:89] 
I0223 16:28:25.302992  1797 net.cpp:90] Creating Layer conv3_bank1
I0223 16:28:25.302997  1797 net.cpp:386] conv3_bank1 <- pool2_bank1
I0223 16:28:25.303009  1797 net.cpp:344] conv3_bank1 -> conv3_bank1
I0223 16:28:25.303019  1797 net.cpp:119] Setting up conv3_bank1
I0223 16:28:25.315915  1797 net.cpp:126] Top shape: 5 128 25 25 (400000)
I0223 16:28:25.315949  1797 layer_factory.hpp:74] Creating layer relu3_bank1
I0223 16:28:25.315963  1797 net.cpp:89] 
I0223 16:28:25.315968  1797 net.cpp:90] Creating Layer relu3_bank1
I0223 16:28:25.315975  1797 net.cpp:386] relu3_bank1 <- conv3_bank1
I0223 16:28:25.316022  1797 net.cpp:333] relu3_bank1 -> conv3_bank1 (in-place)
I0223 16:28:25.316035  1797 net.cpp:119] Setting up relu3_bank1
I0223 16:28:25.316108  1797 net.cpp:126] Top shape: 5 128 25 25 (400000)
I0223 16:28:25.316118  1797 layer_factory.hpp:74] Creating layer pool3_bank1
I0223 16:28:25.316128  1797 net.cpp:89] 
I0223 16:28:25.316133  1797 net.cpp:90] Creating Layer pool3_bank1
I0223 16:28:25.316139  1797 net.cpp:386] pool3_bank1 <- conv3_bank1
I0223 16:28:25.316148  1797 net.cpp:344] pool3_bank1 -> pool3_bank1
I0223 16:28:25.316160  1797 net.cpp:119] Setting up pool3_bank1
I0223 16:28:25.316243  1797 net.cpp:126] Top shape: 5 128 13 13 (108160)
I0223 16:28:25.316252  1797 layer_factory.hpp:74] Creating layer conv4_1_bank1
I0223 16:28:25.316265  1797 net.cpp:89] 
I0223 16:28:25.316270  1797 net.cpp:90] Creating Layer conv4_1_bank1
I0223 16:28:25.316277  1797 net.cpp:386] conv4_1_bank1 <- pool3_bank1
I0223 16:28:25.316287  1797 net.cpp:344] conv4_1_bank1 -> conv4_1_bank1
I0223 16:28:25.316296  1797 net.cpp:119] Setting up conv4_1_bank1
I0223 16:28:25.365728  1797 net.cpp:126] Top shape: 5 512 13 13 (432640)
I0223 16:28:25.365762  1797 layer_factory.hpp:74] Creating layer relu4_1_bank1
I0223 16:28:25.365777  1797 net.cpp:89] 
I0223 16:28:25.365783  1797 net.cpp:90] Creating Layer relu4_1_bank1
I0223 16:28:25.365790  1797 net.cpp:386] relu4_1_bank1 <- conv4_1_bank1
I0223 16:28:25.365800  1797 net.cpp:333] relu4_1_bank1 -> conv4_1_bank1 (in-place)
I0223 16:28:25.365811  1797 net.cpp:119] Setting up relu4_1_bank1
I0223 16:28:25.365880  1797 net.cpp:126] Top shape: 5 512 13 13 (432640)
I0223 16:28:25.365897  1797 layer_factory.hpp:74] Creating layer conv4_2_bank1
I0223 16:28:25.365921  1797 net.cpp:89] 
I0223 16:28:25.365926  1797 net.cpp:90] Creating Layer conv4_2_bank1
I0223 16:28:25.365939  1797 net.cpp:386] conv4_2_bank1 <- conv4_1_bank1
I0223 16:28:25.365957  1797 net.cpp:344] conv4_2_bank1 -> conv4_2_bank1
I0223 16:28:25.365983  1797 net.cpp:119] Setting up conv4_2_bank1
I0223 16:28:25.994415  1797 net.cpp:126] Top shape: 5 512 13 13 (432640)
I0223 16:28:25.994462  1797 layer_factory.hpp:74] Creating layer relu4_2_bank1
I0223 16:28:25.994478  1797 net.cpp:89] 
I0223 16:28:25.994484  1797 net.cpp:90] Creating Layer relu4_2_bank1
I0223 16:28:25.994491  1797 net.cpp:386] relu4_2_bank1 <- conv4_2_bank1
I0223 16:28:25.994503  1797 net.cpp:333] relu4_2_bank1 -> conv4_2_bank1 (in-place)
I0223 16:28:25.994513  1797 net.cpp:119] Setting up relu4_2_bank1
I0223 16:28:25.994698  1797 net.cpp:126] Top shape: 5 512 13 13 (432640)
I0223 16:28:25.994710  1797 layer_factory.hpp:74] Creating layer conv4_2_bank1_relu4_2_bank1_0_split
I0223 16:28:25.994726  1797 net.cpp:89] 
I0223 16:28:25.994732  1797 net.cpp:90] Creating Layer conv4_2_bank1_relu4_2_bank1_0_split
I0223 16:28:25.994737  1797 net.cpp:386] conv4_2_bank1_relu4_2_bank1_0_split <- conv4_2_bank1
I0223 16:28:25.994746  1797 net.cpp:344] conv4_2_bank1_relu4_2_bank1_0_split -> conv4_2_bank1_relu4_2_bank1_0_split_0
I0223 16:28:25.994757  1797 net.cpp:344] conv4_2_bank1_relu4_2_bank1_0_split -> conv4_2_bank1_relu4_2_bank1_0_split_1
I0223 16:28:25.994765  1797 net.cpp:119] Setting up conv4_2_bank1_relu4_2_bank1_0_split
I0223 16:28:25.994776  1797 net.cpp:126] Top shape: 5 512 13 13 (432640)
I0223 16:28:25.994825  1797 net.cpp:126] Top shape: 5 512 13 13 (432640)
I0223 16:28:25.994834  1797 layer_factory.hpp:74] Creating layer conv1_bank2
I0223 16:28:25.994869  1797 net.cpp:89] 
I0223 16:28:25.994876  1797 net.cpp:90] Creating Layer conv1_bank2
I0223 16:28:25.994882  1797 net.cpp:386] conv1_bank2 <- data_bank2
I0223 16:28:25.994894  1797 net.cpp:344] conv1_bank2 -> conv1_bank2
I0223 16:28:25.994920  1797 net.cpp:119] Setting up conv1_bank2
I0223 16:28:25.995682  1797 net.cpp:126] Top shape: 5 128 70 70 (3136000)
I0223 16:28:25.995697  1797 layer_factory.hpp:74] Creating layer relu1_bank2
I0223 16:28:25.995708  1797 net.cpp:89] 
I0223 16:28:25.995713  1797 net.cpp:90] Creating Layer relu1_bank2
I0223 16:28:25.995719  1797 net.cpp:386] relu1_bank2 <- conv1_bank2
I0223 16:28:25.995740  1797 net.cpp:333] relu1_bank2 -> conv1_bank2 (in-place)
I0223 16:28:25.995750  1797 net.cpp:119] Setting up relu1_bank2
I0223 16:28:25.995837  1797 net.cpp:126] Top shape: 5 128 70 70 (3136000)
I0223 16:28:25.995846  1797 layer_factory.hpp:74] Creating layer pool1_bank2
I0223 16:28:25.995873  1797 net.cpp:89] 
I0223 16:28:25.995879  1797 net.cpp:90] Creating Layer pool1_bank2
I0223 16:28:25.995884  1797 net.cpp:386] pool1_bank2 <- conv1_bank2
I0223 16:28:25.995893  1797 net.cpp:344] pool1_bank2 -> pool1_bank2
I0223 16:28:25.995903  1797 net.cpp:119] Setting up pool1_bank2
I0223 16:28:25.995976  1797 net.cpp:126] Top shape: 5 128 35 35 (784000)
I0223 16:28:25.995985  1797 layer_factory.hpp:74] Creating layer conv2_bank2
I0223 16:28:25.996000  1797 net.cpp:89] 
I0223 16:28:25.996004  1797 net.cpp:90] Creating Layer conv2_bank2
I0223 16:28:25.996009  1797 net.cpp:386] conv2_bank2 <- pool1_bank2
I0223 16:28:25.996018  1797 net.cpp:344] conv2_bank2 -> conv2_bank2
I0223 16:28:25.996027  1797 net.cpp:119] Setting up conv2_bank2
I0223 16:28:26.009037  1797 net.cpp:126] Top shape: 5 128 35 35 (784000)
I0223 16:28:26.009070  1797 layer_factory.hpp:74] Creating layer relu2_bank2
I0223 16:28:26.009084  1797 net.cpp:89] 
I0223 16:28:26.009090  1797 net.cpp:90] Creating Layer relu2_bank2
I0223 16:28:26.009096  1797 net.cpp:386] relu2_bank2 <- conv2_bank2
I0223 16:28:26.009106  1797 net.cpp:333] relu2_bank2 -> conv2_bank2 (in-place)
I0223 16:28:26.009116  1797 net.cpp:119] Setting up relu2_bank2
I0223 16:28:26.009196  1797 net.cpp:126] Top shape: 5 128 35 35 (784000)
I0223 16:28:26.009204  1797 layer_factory.hpp:74] Creating layer pool2_bank2
I0223 16:28:26.009232  1797 net.cpp:89] 
I0223 16:28:26.009238  1797 net.cpp:90] Creating Layer pool2_bank2
I0223 16:28:26.009243  1797 net.cpp:386] pool2_bank2 <- conv2_bank2
I0223 16:28:26.009250  1797 net.cpp:344] pool2_bank2 -> pool2_bank2
I0223 16:28:26.009260  1797 net.cpp:119] Setting up pool2_bank2
I0223 16:28:26.009439  1797 net.cpp:126] Top shape: 5 128 18 18 (207360)
I0223 16:28:26.009450  1797 layer_factory.hpp:74] Creating layer conv3_bank2
I0223 16:28:26.009464  1797 net.cpp:89] 
I0223 16:28:26.009470  1797 net.cpp:90] Creating Layer conv3_bank2
I0223 16:28:26.009476  1797 net.cpp:386] conv3_bank2 <- pool2_bank2
I0223 16:28:26.009486  1797 net.cpp:344] conv3_bank2 -> conv3_bank2
I0223 16:28:26.009496  1797 net.cpp:119] Setting up conv3_bank2
I0223 16:28:26.022388  1797 net.cpp:126] Top shape: 5 128 18 18 (207360)
I0223 16:28:26.022419  1797 layer_factory.hpp:74] Creating layer relu3_bank2
I0223 16:28:26.022431  1797 net.cpp:89] 
I0223 16:28:26.022438  1797 net.cpp:90] Creating Layer relu3_bank2
I0223 16:28:26.022451  1797 net.cpp:386] relu3_bank2 <- conv3_bank2
I0223 16:28:26.022462  1797 net.cpp:333] relu3_bank2 -> conv3_bank2 (in-place)
I0223 16:28:26.022475  1797 net.cpp:119] Setting up relu3_bank2
I0223 16:28:26.022547  1797 net.cpp:126] Top shape: 5 128 18 18 (207360)
I0223 16:28:26.022557  1797 layer_factory.hpp:74] Creating layer pool3_bank2
I0223 16:28:26.022568  1797 net.cpp:89] 
I0223 16:28:26.022574  1797 net.cpp:90] Creating Layer pool3_bank2
I0223 16:28:26.022579  1797 net.cpp:386] pool3_bank2 <- conv3_bank2
I0223 16:28:26.022588  1797 net.cpp:344] pool3_bank2 -> pool3_bank2
I0223 16:28:26.022598  1797 net.cpp:119] Setting up pool3_bank2
I0223 16:28:26.022676  1797 net.cpp:126] Top shape: 5 128 9 9 (51840)
I0223 16:28:26.022686  1797 layer_factory.hpp:74] Creating layer conv4_1_bank2
I0223 16:28:26.022696  1797 net.cpp:89] 
I0223 16:28:26.022701  1797 net.cpp:90] Creating Layer conv4_1_bank2
I0223 16:28:26.022706  1797 net.cpp:386] conv4_1_bank2 <- pool3_bank2
I0223 16:28:26.022716  1797 net.cpp:344] conv4_1_bank2 -> conv4_1_bank2
I0223 16:28:26.022727  1797 net.cpp:119] Setting up conv4_1_bank2
I0223 16:28:26.072031  1797 net.cpp:126] Top shape: 5 512 9 9 (207360)
I0223 16:28:26.072067  1797 layer_factory.hpp:74] Creating layer relu4_1_bank2
I0223 16:28:26.072082  1797 net.cpp:89] 
I0223 16:28:26.072088  1797 net.cpp:90] Creating Layer relu4_1_bank2
I0223 16:28:26.072121  1797 net.cpp:386] relu4_1_bank2 <- conv4_1_bank2
I0223 16:28:26.072131  1797 net.cpp:333] relu4_1_bank2 -> conv4_1_bank2 (in-place)
I0223 16:28:26.072145  1797 net.cpp:119] Setting up relu4_1_bank2
I0223 16:28:26.072324  1797 net.cpp:126] Top shape: 5 512 9 9 (207360)
I0223 16:28:26.072335  1797 layer_factory.hpp:74] Creating layer conv4_2_bank2
I0223 16:28:26.072348  1797 net.cpp:89] 
I0223 16:28:26.072355  1797 net.cpp:90] Creating Layer conv4_2_bank2
I0223 16:28:26.072360  1797 net.cpp:386] conv4_2_bank2 <- conv4_1_bank2
I0223 16:28:26.072371  1797 net.cpp:344] conv4_2_bank2 -> conv4_2_bank2
I0223 16:28:26.072381  1797 net.cpp:119] Setting up conv4_2_bank2
I0223 16:28:26.700183  1797 net.cpp:126] Top shape: 5 512 9 9 (207360)
I0223 16:28:26.700223  1797 layer_factory.hpp:74] Creating layer relu4_2_bank2
I0223 16:28:26.700237  1797 net.cpp:89] 
I0223 16:28:26.700242  1797 net.cpp:90] Creating Layer relu4_2_bank2
I0223 16:28:26.700250  1797 net.cpp:386] relu4_2_bank2 <- conv4_2_bank2
I0223 16:28:26.700263  1797 net.cpp:333] relu4_2_bank2 -> conv4_2_bank2 (in-place)
I0223 16:28:26.700275  1797 net.cpp:119] Setting up relu4_2_bank2
I0223 16:28:26.700362  1797 net.cpp:126] Top shape: 5 512 9 9 (207360)
I0223 16:28:26.700371  1797 layer_factory.hpp:74] Creating layer re_conv4_2_bank2
I0223 16:28:26.700392  1797 net.cpp:89] 
I0223 16:28:26.700397  1797 net.cpp:90] Creating Layer re_conv4_2_bank2
I0223 16:28:26.700402  1797 net.cpp:386] re_conv4_2_bank2 <- conv4_2_bank2
I0223 16:28:26.700410  1797 net.cpp:386] re_conv4_2_bank2 <- conv4_2_bank1_relu4_2_bank1_0_split_0
I0223 16:28:26.700420  1797 net.cpp:344] re_conv4_2_bank2 -> re_conv4_2_bank2
I0223 16:28:26.700430  1797 net.cpp:119] Setting up re_conv4_2_bank2
I0223 16:28:26.700451  1797 net.cpp:126] Top shape: 5 512 13 13 (432640)
I0223 16:28:26.700464  1797 layer_factory.hpp:74] Creating layer merge_banks
I0223 16:28:26.701170  1797 net.cpp:89] 
I0223 16:28:26.701198  1797 net.cpp:90] Creating Layer merge_banks
I0223 16:28:26.701205  1797 net.cpp:386] merge_banks <- conv4_2_bank1_relu4_2_bank1_0_split_1
I0223 16:28:26.701211  1797 net.cpp:386] merge_banks <- re_conv4_2_bank2
I0223 16:28:26.701220  1797 net.cpp:344] merge_banks -> conv4
I0223 16:28:26.701233  1797 net.cpp:119] Setting up merge_banks
I0223 16:28:26.701877  1797 net.cpp:126] Top shape: 5 512 13 13 (432640)
I0223 16:28:26.701897  1797 layer_factory.hpp:74] Creating layer spatial_drop
I0223 16:28:26.702219  1797 net.cpp:89] 
I0223 16:28:26.702237  1797 net.cpp:90] Creating Layer spatial_drop
I0223 16:28:26.702250  1797 net.cpp:386] spatial_drop <- conv4
I0223 16:28:26.702265  1797 net.cpp:333] spatial_drop -> conv4 (in-place)
I0223 16:28:26.702283  1797 net.cpp:119] Setting up spatial_drop
I0223 16:28:26.702298  1797 net.cpp:126] Top shape: 5 512 13 13 (432640)
I0223 16:28:26.702304  1797 layer_factory.hpp:74] Creating layer conv5
I0223 16:28:26.702316  1797 net.cpp:89] 
I0223 16:28:26.702324  1797 net.cpp:90] Creating Layer conv5
I0223 16:28:26.702329  1797 net.cpp:386] conv5 <- conv4
I0223 16:28:26.702345  1797 net.cpp:344] conv5 -> conv5
I0223 16:28:26.702361  1797 net.cpp:119] Setting up conv5
I0223 16:28:26.706768  1797 net.cpp:126] Top shape: 5 256 13 13 (216320)
I0223 16:28:26.706795  1797 layer_factory.hpp:74] Creating layer relu5
I0223 16:28:26.706806  1797 net.cpp:89] 
I0223 16:28:26.706812  1797 net.cpp:90] Creating Layer relu5
I0223 16:28:26.706818  1797 net.cpp:386] relu5 <- conv5
I0223 16:28:26.706827  1797 net.cpp:333] relu5 -> conv5 (in-place)
I0223 16:28:26.706838  1797 net.cpp:119] Setting up relu5
I0223 16:28:26.706918  1797 net.cpp:126] Top shape: 5 256 13 13 (216320)
I0223 16:28:26.706967  1797 layer_factory.hpp:74] Creating layer conv6
I0223 16:28:26.706982  1797 net.cpp:89] 
I0223 16:28:26.707025  1797 net.cpp:90] Creating Layer conv6
I0223 16:28:26.707041  1797 net.cpp:386] conv6 <- conv5
I0223 16:28:26.707061  1797 net.cpp:344] conv6 -> conv6
I0223 16:28:26.707085  1797 net.cpp:119] Setting up conv6
I0223 16:28:26.709621  1797 net.cpp:126] Top shape: 5 256 13 13 (216320)
I0223 16:28:26.709681  1797 layer_factory.hpp:74] Creating layer relu6
I0223 16:28:26.709697  1797 net.cpp:89] 
I0223 16:28:26.709702  1797 net.cpp:90] Creating Layer relu6
I0223 16:28:26.709708  1797 net.cpp:386] relu6 <- conv6
I0223 16:28:26.709719  1797 net.cpp:333] relu6 -> conv6 (in-place)
I0223 16:28:26.709729  1797 net.cpp:119] Setting up relu6
I0223 16:28:26.709813  1797 net.cpp:126] Top shape: 5 256 13 13 (216320)
I0223 16:28:26.709851  1797 layer_factory.hpp:74] Creating layer conv7
I0223 16:28:26.709882  1797 net.cpp:89] 
I0223 16:28:26.709908  1797 net.cpp:90] Creating Layer conv7
I0223 16:28:26.709929  1797 net.cpp:386] conv7 <- conv6
I0223 16:28:26.709955  1797 net.cpp:344] conv7 -> conv7
I0223 16:28:26.709985  1797 net.cpp:119] Setting up conv7
I0223 16:28:26.710477  1797 net.cpp:126] Top shape: 5 19 13 13 (16055)
I0223 16:28:26.710492  1797 layer_factory.hpp:74] Creating layer re_conv7
I0223 16:28:26.710501  1797 net.cpp:89] 
I0223 16:28:26.710506  1797 net.cpp:90] Creating Layer re_conv7
I0223 16:28:26.710512  1797 net.cpp:386] re_conv7 <- conv7
I0223 16:28:26.710520  1797 net.cpp:386] re_conv7 <- data_bank1_concat_data_0_split_2
I0223 16:28:26.710530  1797 net.cpp:344] re_conv7 -> re_conv7
I0223 16:28:26.710538  1797 net.cpp:119] Setting up re_conv7
I0223 16:28:26.710588  1797 net.cpp:126] Top shape: 5 19 100 100 (950000)
I0223 16:28:26.710597  1797 layer_factory.hpp:74] Creating layer pred_coords_from_maps
I0223 16:28:26.710620  1797 net.cpp:89] 
I0223 16:28:26.710625  1797 net.cpp:90] Creating Layer pred_coords_from_maps
I0223 16:28:26.710639  1797 net.cpp:386] pred_coords_from_maps <- re_conv7
I0223 16:28:26.710654  1797 net.cpp:344] pred_coords_from_maps -> pred_pose_coords
I0223 16:28:26.710662  1797 net.cpp:119] Setting up pred_coords_from_maps
I0223 16:28:26.711024  1797 net.cpp:126] Top shape: 5 38 1 1 (190)
I0223 16:28:26.711045  1797 layer_factory.hpp:74] Creating layer pred_rescale_pose_coords
I0223 16:28:26.711407  1797 net.cpp:89] 
I0223 16:28:26.711427  1797 net.cpp:90] Creating Layer pred_rescale_pose_coords
I0223 16:28:26.711446  1797 net.cpp:386] pred_rescale_pose_coords <- pred_pose_coords
I0223 16:28:26.711457  1797 net.cpp:386] pred_rescale_pose_coords <- aux_info_input_1_split_1
I0223 16:28:26.711472  1797 net.cpp:333] pred_rescale_pose_coords -> pred_pose_coords (in-place)
I0223 16:28:26.711483  1797 net.cpp:119] Setting up pred_rescale_pose_coords
I0223 16:28:26.711521  1797 net.cpp:126] Top shape: 5 38 1 1 (190)
I0223 16:28:26.711544  1797 net.cpp:175] pred_rescale_pose_coords does not need backward computation.
I0223 16:28:26.711562  1797 net.cpp:175] pred_coords_from_maps does not need backward computation.
I0223 16:28:26.711580  1797 net.cpp:175] re_conv7 does not need backward computation.
I0223 16:28:26.711596  1797 net.cpp:175] conv7 does not need backward computation.
I0223 16:28:26.711613  1797 net.cpp:175] relu6 does not need backward computation.
…
