…
I0408 22:37:22.319597 15555 static_pose_v2.cpp:339] has_torso: 1
I0408 22:37:22.319602 15555 static_pose_v2.cpp:340] batch size: 1
I0408 22:37:22.319608 15555 static_pose_v2.cpp:348] Opening file /home/ddk/download/pose.test.nature.scene/pt_props_m.txt
I0408 22:37:22.670984 15555 net.cpp:43] Initializing net from parameters: 
name: "HumanPoseEstimation"
input: "data"
input: "aux_info"
input: "gt_coords"
state {
  phase: TEST
}
input_shape {
  dim: 5
  dim: 3
  dim: 100
  dim: 100
}
input_shape {
  dim: 5
  dim: 5
  dim: 1
  dim: 1
}
input_shape {
  dim: 5
  dim: 28
  dim: 1
  dim: 1
}
layer {
  name: "tmasks"
  type: "CoordsToBboxesMasks"
  bottom: "gt_coords"
  bottom: "aux_info"
  top: "tmasks"
  coord_to_bbox_masks_param {
    top_id: 6
    bottom_id: 10
    value: 255
    top_id2: 6
    bottom_id2: 10
  }
}
layer {
  name: "data_b1"
  type: "Concat"
  bottom: "data"
  bottom: "tmasks"
  top: "data_b1"
  concat_param {
    concat_dim: 1
  }
}
layer {
  name: "data_b2"
  type: "Resize"
  bottom: "data_b1"
  top: "data_b2"
  resize_param {
    height_fac: 0.707
    width_fac: 0.707
  }
}
layer {
  name: "conv1_b1"
  type: "Convolution"
  bottom: "data"
  top: "conv1_b1"
  param {
    lr_mult: 0
    decay_mult: 0
  }
  param {
    lr_mult: 0
    decay_mult: 0
  }
  convolution_param {
    num_output: 128
    pad: 2
    kernel_size: 5
    weight_filler {
      type: "gaussian"
      std: 0.01
    }
    bias_filler {
      type: "constant"
      value: 0
    }
  }
}
layer {
  name: "relu1_b1"
  type: "ReLU"
  bottom: "conv1_b1"
  top: "conv1_b1"
}
layer {
  name: "pool1_b1"
  type: "Pooling"
  bottom: "conv1_b1"
  top: "pool1_b1"
  pooling_param {
    pool: MAX
    kernel_size: 2
    stride: 2
  }
}
layer {
  name: "conv2_b1"
  type: "Convolution"
  bottom: "pool1_b1"
  top: "conv2_b1"
  param {
    lr_mult: 0
    decay_mult: 0
  }
  param {
    lr_mult: 0
    decay_mult: 0
  }
  convolution_param {
    num_output: 128
    pad: 2
    kernel_size: 5
    weight_filler {
      type: "gaussian"
      std: 0.01
    }
    bias_filler {
      type: "constant"
      value: 0
    }
  }
}
layer {
  name: "relu2_b1"
  type: "ReLU"
  bottom: "conv2_b1"
  top: "conv2_b1"
}
layer {
  name: "pool2_b1"
  type: "Pooling"
  bottom: "conv2_b1"
  top: "pool2_b1"
  pooling_param {
    pool: MAX
    kernel_size: 2
    stride: 2
  }
}
layer {
  name: "conv3_b1"
  type: "Convolution"
  bottom: "pool2_b1"
  top: "conv3_b1"
  param {
    lr_mult: 0
    decay_mult: 0
  }
  param {
    lr_mult: 0
    decay_mult: 0
  }
  convolution_param {
    num_output: 128
    pad: 2
    kernel_size: 5
    weight_filler {
      type: "gaussian"
      std: 0.01
    }
    bias_filler {
      type: "constant"
      value: 0
    }
  }
}
layer {
  name: "relu3_b1"
  type: "ReLU"
  bottom: "conv3_b1"
  top: "conv3_b1"
}
layer {
  name: "conv4_b1"
  type: "Convolution"
  bottom: "conv3_b1"
  top: "conv4_b1"
  param {
    lr_mult: 0
    decay_mult: 0
  }
  param {
    lr_mult: 0
    decay_mult: 0
  }
  convolution_param {
    num_output: 256
    pad: 4
    kernel_size: 9
    weight_filler {
      type: "gaussian"
      std: 0.01
    }
    bias_filler {
      type: "constant"
      value: 0
    }
  }
}
layer {
  name: "relu4_b1"
  type: "ReLU"
  bottom: "conv4_b1"
  top: "conv4_b1"
}
layer {
  name: "conv1_b2"
  type: "Convolution"
  bottom: "data_b2"
  top: "conv1_b2"
  param {
    lr_mult: 0
    decay_mult: 0
  }
  param {
    lr_mult: 0
    decay_mult: 0
  }
  convolution_param {
    num_output: 128
    pad: 2
    kernel_size: 5
    weight_filler {
      type: "gaussian"
      std: 0.01
    }
    bias_filler {
      type: "constant"
      value: 0
    }
  }
}
layer {
  name: "relu1_b2"
  type: "ReLU"
  bottom: "conv1_b2"
  top: "conv1_b2"
}
layer {
  name: "pool1_b2"
  type: "Pooling"
  bottom: "conv1_b2"
  top: "pool1_b2"
  pooling_param {
    pool: MAX
    kernel_size: 2
    stride: 2
  }
}
layer {
  name: "conv2_b2"
  type: "Convolution"
  bottom: "pool1_b2"
  top: "conv2_b2"
  param {
    lr_mult: 0
    decay_mult: 0
  }
  param {
    lr_mult: 0
    decay_mult: 0
  }
  convolution_param {
    num_output: 128
    pad: 2
    kernel_size: 5
    weight_filler {
      type: "gaussian"
      std: 0.01
    }
    bias_filler {
      type: "constant"
      value: 0
    }
  }
}
layer {
  name: "relu2_b2"
  type: "ReLU"
  bottom: "conv2_b2"
  top: "conv2_b2"
}
layer {
  name: "pool2_b2"
  type: "Pooling"
  bottom: "conv2_b2"
  top: "pool2_b2"
  pooling_param {
    pool: MAX
    kernel_size: 2
    stride: 2
  }
}
layer {
  name: "conv3_b2"
  type: "Convolution"
  bottom: "pool2_b2"
  top: "conv3_b2"
  param {
    lr_mult: 0
    decay_mult: 0
  }
  param {
    lr_mult: 0
    decay_mult: 0
  }
  convolution_param {
    num_output: 128
    pad: 2
    kernel_size: 5
    weight_filler {
      type: "gaussian"
      std: 0.01
    }
    bias_filler {
      type: "constant"
      value: 0
    }
  }
}
layer {
  name: "relu3_b2"
  type: "ReLU"
  bottom: "conv3_b2"
  top: "conv3_b2"
}
layer {
  name: "conv4_b2"
  type: "Convolution"
  bottom: "conv3_b2"
  top: "conv4_b2"
  param {
    lr_mult: 0
    decay_mult: 0
  }
  param {
    lr_mult: 0
    decay_mult: 0
  }
  convolution_param {
    num_output: 256
    pad: 4
    kernel_size: 9
    weight_filler {
      type: "gaussian"
      std: 0.01
    }
    bias_filler {
      type: "constant"
      value: 0
    }
  }
}
layer {
  name: "relu4_b2"
  type: "ReLU"
  bottom: "conv4_b2"
  top: "conv4_b2"
}
layer {
  name: "conv4_b2r"
  type: "Resize"
  bottom: "conv4_b2"
  bottom: "conv4_b1"
  top: "conv4_b2r"
}
layer {
  name: "merge_banks"
  type: "Eltwise"
  bottom: "conv4_b1"
  bottom: "conv4_b2r"
  top: "conv4"
  eltwise_param {
    operation: SUM
  }
}
layer {
  name: "spatial_drop"
  type: "SpatialDropout"
  bottom: "conv4"
  top: "conv4"
  spatial_dropout_param {
    dropout_ratio: 0.5
  }
}
layer {
  name: "conv5"
  type: "Convolution"
  bottom: "conv4"
  top: "conv5"
  param {
    lr_mult: 0
    decay_mult: 0
  }
  param {
    lr_mult: 0
    decay_mult: 0
  }
  convolution_param {
    num_output: 512
    pad: 4
    kernel_size: 9
    weight_filler {
      type: "gaussian"
      std: 0.01
    }
    bias_filler {
      type: "constant"
      value: 0
    }
  }
}
layer {
  name: "relu5"
  type: "ReLU"
  bottom: "conv5"
  top: "conv5"
}
layer {
  name: "conv6"
  type: "Convolution"
  bottom: "conv5"
  top: "conv6"
  param {
    lr_mult: 0
    decay_mult: 0
  }
  param {
    lr_mult: 0
    decay_mult: 0
  }
  convolution_param {
    num_output: 256
    kernel_size: 1
    weight_filler {
      type: "gaussian"
      std: 0.01
    }
    bias_filler {
      type: "constant"
      value: 0
    }
  }
}
layer {
  name: "relu6"
  type: "ReLU"
  bottom: "conv6"
  top: "conv6"
}
layer {
  name: "conv7"
  type: "Convolution"
  bottom: "conv6"
  top: "conv7"
  param {
    lr_mult: 0
    decay_mult: 0
  }
  param {
    lr_mult: 0
    decay_mult: 0
  }
  convolution_param {
    num_output: 256
    kernel_size: 1
    weight_filler {
      type: "gaussian"
      std: 0.01
    }
    bias_filler {
      type: "constant"
      value: 0
    }
  }
}
layer {
  name: "relu7"
  type: "ReLU"
  bottom: "conv7"
  top: "conv7"
}
layer {
  name: "conv8"
  type: "Convolution"
  bottom: "conv7"
  top: "conv8"
  param {
    lr_mult: 0
    decay_mult: 0
  }
  param {
    lr_mult: 0
    decay_mult: 0
  }
  convolution_param {
    num_output: 14
    kernel_size: 1
    weight_filler {
      type: "gaussian"
      std: 0.01
    }
    bias_filler {
      type: "constant"
      value: 0
    }
  }
}
layer {
  name: "conv3_b2r"
  type: "Resize"
  bottom: "conv3_b2"
  bottom: "conv3_b1"
  top: "conv3_b2r"
}
layer {
  name: "concat_f"
  type: "Concat"
  bottom: "conv3_b1"
  bottom: "conv3_b2r"
  bottom: "conv7"
  top: "concat_f"
  concat_param {
    concat_dim: 1
  }
}
layer {
  name: "conv1_f"
  type: "Convolution"
  bottom: "concat_f"
  top: "conv1_f"
  param {
    lr_mult: 0
    decay_mult: 0
  }
  param {
    lr_mult: 0
    decay_mult: 0
  }
  convolution_param {
    num_output: 64
    pad: 3
    kernel_size: 7
    weight_filler {
      type: "gaussian"
      std: 0.01
    }
    bias_filler {
      type: "constant"
    }
  }
}
layer {
  name: "relu1_f"
  type: "ReLU"
  bottom: "conv1_f"
  top: "conv1_f"
}
layer {
  name: "conv2_f"
  type: "Convolution"
  bottom: "conv1_f"
  top: "conv2_f"
  param {
    lr_mult: 0
    decay_mult: 0
  }
  param {
    lr_mult: 0
    decay_mult: 0
  }
  convolution_param {
    num_output: 64
    pad: 6
    kernel_size: 13
    weight_filler {
      type: "gaussian"
      std: 0.01
    }
    bias_filler {
      type: "constant"
    }
  }
}
layer {
  name: "relu2_f"
  type: "ReLU"
  bottom: "conv2_f"
  top: "conv2_f"
}
layer {
  name: "conv3_f"
  type: "Convolution"
  bottom: "conv2_f"
  top: "conv3_f"
  param {
    lr_mult: 0
    decay_mult: 0
  }
  param {
    lr_mult: 0
    decay_mult: 0
  }
  convolution_param {
    num_output: 64
    pad: 6
    kernel_size: 13
    weight_filler {
      type: "gaussian"
      std: 0.01
    }
    bias_filler {
      type: "constant"
    }
  }
}
layer {
  name: "relu3_f"
  type: "ReLU"
  bottom: "conv3_f"
  top: "conv3_f"
}
layer {
  name: "conv4_f"
  type: "Convolution"
  bottom: "conv3_f"
  top: "conv4_f"
  param {
    lr_mult: 0
    decay_mult: 0
  }
  param {
    lr_mult: 0
    decay_mult: 0
  }
  convolution_param {
    num_output: 256
    kernel_size: 1
    weight_filler {
      type: "gaussian"
      std: 0.01
    }
    bias_filler {
      type: "constant"
    }
  }
}
layer {
  name: "relu4_f"
  type: "ReLU"
  bottom: "conv4_f"
  top: "conv4_f"
}
layer {
  name: "conv5_f"
  type: "Convolution"
  bottom: "conv4_f"
  top: "conv5_f"
  param {
    lr_mult: 0
    decay_mult: 0
  }
  param {
    lr_mult: 0
    decay_mult: 0
  }
  convolution_param {
    num_output: 14
    kernel_size: 1
    weight_filler {
      type: "gaussian"
      std: 0.01
    }
    bias_filler {
      type: "constant"
    }
  }
}
layer {
  name: "conv1_ref"
  type: "Convolution"
  bottom: "concat_f"
  top: "conv1_ref"
  param {
    lr_mult: 0
    decay_mult: 0
  }
  param {
    lr_mult: 0
    decay_mult: 0
  }
  convolution_param {
    num_output: 896
    kernel_size: 1
    weight_filler {
      type: "gaussian"
      std: 0.01
    }
    bias_filler {
      type: "constant"
    }
  }
}
layer {
  name: "relu1_ref"
  type: "ReLU"
  bottom: "conv1_ref"
  top: "conv1_ref"
}
layer {
  name: "conv2_ref"
  type: "Convolution"
  bottom: "conv1_ref"
  top: "conv2_ref"
  param {
    lr_mult: 0
    decay_mult: 0
  }
  param {
    lr_mult: 0
    decay_mult: 0
  }
  convolution_param {
    num_output: 896
    pad: 3
    kernel_size: 7
    group: 14
    weight_filler {
      type: "gaussian"
      std: 0.01
    }
    bias_filler {
      type: "constant"
    }
  }
}
layer {
  name: "relu2_ref"
  type: "ReLU"
  bottom: "conv2_ref"
  top: "conv2_ref"
}
layer {
  name: "conv3_ref"
  type: "Convolution"
  bottom: "conv2_ref"
  top: "conv3_ref"
  param {
    lr_mult: 0
    decay_mult: 0
  }
  param {
    lr_mult: 0
    decay_mult: 0
  }
  convolution_param {
    num_output: 896
    pad: 6
    kernel_size: 13
    group: 14
    weight_filler {
      type: "gaussian"
      std: 0.01
    }
    bias_filler {
      type: "constant"
    }
  }
}
layer {
  name: "relu3_ref"
  type: "ReLU"
  bottom: "conv3_ref"
  top: "conv3_ref"
}
layer {
  name: "conv4_ref"
  type: "Convolution"
  bottom: "conv3_ref"
  top: "conv4_ref"
  param {
    lr_mult: 0
    decay_mult: 0
  }
  param {
    lr_mult: 0
    decay_mult: 0
  }
  convolution_param {
    num_output: 896
    pad: 6
    kernel_size: 13
    group: 14
    weight_filler {
      type: "gaussian"
      std: 0.01
    }
    bias_filler {
      type: "constant"
    }
  }
}
layer {
  name: "relu4_ref"
  type: "ReLU"
  bottom: "conv4_ref"
  top: "conv4_ref"
}
layer {
  name: "conv5_ref"
  type: "Convolution"
  bottom: "conv4_ref"
  top: "conv5_ref"
  param {
    lr_mult: 0
    decay_mult: 0
  }
  param {
    lr_mult: 0
    decay_mult: 0
  }
  convolution_param {
    num_output: 3584
    kernel_size: 1
    group: 14
    weight_filler {
      type: "gaussian"
      std: 0.01
    }
    bias_filler {
      type: "constant"
    }
  }
}
layer {
  name: "relu5_ref"
  type: "ReLU"
  bottom: "conv5_ref"
  top: "conv5_ref"
}
layer {
  name: "conv6_ref"
  type: "Convolution"
  bottom: "conv5_ref"
  top: "conv6_ref"
  param {
    lr_mult: 0
    decay_mult: 0
  }
  param {
    lr_mult: 0
    decay_mult: 0
  }
  convolution_param {
    num_output: 14
    kernel_size: 1
    group: 14
    weight_filler {
      type: "gaussian"
      std: 0.01
    }
    bias_filler {
      type: "constant"
    }
  }
}
layer {
  name: "refined_heat_maps"
  type: "Eltwise"
  bottom: "conv8"
  bottom: "conv5_f"
  bottom: "conv6_ref"
  top: "refined_heat_maps"
  include {
    phase: TEST
  }
  eltwise_param {
    operation: SUM
    coeff: 1
    coeff: 1
    coeff: 1
  }
}
layer {
  name: "pred_heat_maps"
  type: "Resize"
  bottom: "refined_heat_maps"
  bottom: "heat_maps"
  top: "pred_heat_maps"
  include {
    phase: TEST
  }
}
layer {
  name: "pred_coords"
  type: "CoordsFromHeatMaps"
  bottom: "pred_heat_maps"
  top: "pred_coords"
  include {
    phase: TEST
  }
  pose_coords_from_heat_maps_param {
    heat_map_a: 1
    heat_map_b: 0
    top_k: 40
  }
  is_disp_info: true
}
layer {
  name: "pred_coordsr"
  type: "RescaledPoseCoords"
  bottom: "pred_coords"
  bottom: "aux_info"
  top: "pred_coordsr"
  include {
    phase: TEST
  }
}
F0408 22:37:22.671191 15555 insert_splits.cpp:35] Unknown blob input heat_maps to layer 1
*** Check failure stack trace: ***
    @     0x7f3e4c696daa  (unknown)
    @     0x7f3e4c696ce4  (unknown)
    @     0x7f3e4c6966e6  (unknown)
    @     0x7f3e4c699687  (unknown)
    @     0x7f3e4cd3c8ee  caffe::InsertSplits()
    @     0x7f3e4cda12a5  caffe::Net<>::Init()
…
I0408 22:41:27.136420 15644 static_pose_v2.cpp:339] has_torso: 1
I0408 22:41:27.136425 15644 static_pose_v2.cpp:340] batch size: 1
I0408 22:41:27.136430 15644 static_pose_v2.cpp:348] Opening file /home/ddk/download/pose.test.nature.scene/pt_props_m.txt
I0408 22:41:27.490044 15644 net.cpp:43] Initializing net from parameters: 
name: "HumanPoseEstimation"
input: "o_data"
input: "aux_info"
input: "gt_coords"
state {
  phase: TEST
}
input_shape {
  dim: 5
  dim: 3
  dim: 100
  dim: 100
}
input_shape {
  dim: 5
  dim: 5
  dim: 1
  dim: 1
}
input_shape {
  dim: 5
  dim: 28
  dim: 1
  dim: 1
}
layer {
  name: "tmasks"
  type: "CoordsToBboxesMasks"
  bottom: "gt_coords"
  bottom: "aux_info"
  top: "tmasks"
  coord_to_bbox_masks_param {
    top_id: 6
    bottom_id: 10
    value: 255
    top_id2: 6
    bottom_id2: 10
  }
}
layer {
  name: "data"
  type: "Concat"
  bottom: "o_data"
  bottom: "tmasks"
  top: "data"
  concat_param {
    concat_dim: 1
  }
}
layer {
  name: "data_b2"
  type: "Resize"
  bottom: "data"
  top: "data_b2"
  resize_param {
    height_fac: 0.707
    width_fac: 0.707
  }
}
layer {
  name: "conv1_b1"
  type: "Convolution"
  bottom: "data"
  top: "conv1_b1"
  param {
    lr_mult: 0
    decay_mult: 0
  }
  param {
    lr_mult: 0
    decay_mult: 0
  }
  convolution_param {
    num_output: 128
    pad: 2
    kernel_size: 5
    weight_filler {
      type: "gaussian"
      std: 0.01
    }
    bias_filler {
      type: "constant"
      value: 0
    }
  }
}
layer {
  name: "relu1_b1"
  type: "ReLU"
  bottom: "conv1_b1"
  top: "conv1_b1"
}
layer {
  name: "pool1_b1"
  type: "Pooling"
  bottom: "conv1_b1"
  top: "pool1_b1"
  pooling_param {
    pool: MAX
    kernel_size: 2
    stride: 2
  }
}
layer {
  name: "conv2_b1"
  type: "Convolution"
  bottom: "pool1_b1"
  top: "conv2_b1"
  param {
    lr_mult: 0
    decay_mult: 0
  }
  param {
    lr_mult: 0
    decay_mult: 0
  }
  convolution_param {
    num_output: 128
    pad: 2
    kernel_size: 5
    weight_filler {
      type: "gaussian"
      std: 0.01
    }
    bias_filler {
      type: "constant"
      value: 0
    }
  }
}
layer {
  name: "relu2_b1"
  type: "ReLU"
  bottom: "conv2_b1"
  top: "conv2_b1"
}
layer {
  name: "pool2_b1"
  type: "Pooling"
  bottom: "conv2_b1"
  top: "pool2_b1"
  pooling_param {
    pool: MAX
    kernel_size: 2
    stride: 2
  }
}
layer {
  name: "conv3_b1"
  type: "Convolution"
  bottom: "pool2_b1"
  top: "conv3_b1"
  param {
    lr_mult: 0
    decay_mult: 0
  }
  param {
    lr_mult: 0
    decay_mult: 0
  }
  convolution_param {
    num_output: 128
    pad: 2
    kernel_size: 5
    weight_filler {
      type: "gaussian"
      std: 0.01
    }
    bias_filler {
      type: "constant"
      value: 0
    }
  }
}
layer {
  name: "relu3_b1"
  type: "ReLU"
  bottom: "conv3_b1"
  top: "conv3_b1"
}
layer {
  name: "conv4_b1"
  type: "Convolution"
  bottom: "conv3_b1"
  top: "conv4_b1"
  param {
    lr_mult: 0
    decay_mult: 0
  }
  param {
    lr_mult: 0
    decay_mult: 0
  }
  convolution_param {
    num_output: 256
    pad: 4
    kernel_size: 9
    weight_filler {
      type: "gaussian"
      std: 0.01
    }
    bias_filler {
      type: "constant"
      value: 0
    }
  }
}
layer {
  name: "relu4_b1"
  type: "ReLU"
  bottom: "conv4_b1"
  top: "conv4_b1"
}
layer {
  name: "conv1_b2"
  type: "Convolution"
  bottom: "data_b2"
  top: "conv1_b2"
  param {
    lr_mult: 0
    decay_mult: 0
  }
  param {
    lr_mult: 0
    decay_mult: 0
  }
  convolution_param {
    num_output: 128
    pad: 2
    kernel_size: 5
    weight_filler {
      type: "gaussian"
      std: 0.01
    }
    bias_filler {
      type: "constant"
      value: 0
    }
  }
}
layer {
  name: "relu1_b2"
  type: "ReLU"
  bottom: "conv1_b2"
  top: "conv1_b2"
}
layer {
  name: "pool1_b2"
  type: "Pooling"
  bottom: "conv1_b2"
  top: "pool1_b2"
  pooling_param {
    pool: MAX
    kernel_size: 2
    stride: 2
  }
}
layer {
  name: "conv2_b2"
  type: "Convolution"
  bottom: "pool1_b2"
  top: "conv2_b2"
  param {
    lr_mult: 0
    decay_mult: 0
  }
  param {
    lr_mult: 0
    decay_mult: 0
  }
  convolution_param {
    num_output: 128
    pad: 2
    kernel_size: 5
    weight_filler {
      type: "gaussian"
      std: 0.01
    }
    bias_filler {
      type: "constant"
      value: 0
    }
  }
}
layer {
  name: "relu2_b2"
  type: "ReLU"
  bottom: "conv2_b2"
  top: "conv2_b2"
}
layer {
  name: "pool2_b2"
  type: "Pooling"
  bottom: "conv2_b2"
  top: "pool2_b2"
  pooling_param {
    pool: MAX
    kernel_size: 2
    stride: 2
  }
}
layer {
  name: "conv3_b2"
  type: "Convolution"
  bottom: "pool2_b2"
  top: "conv3_b2"
  param {
    lr_mult: 0
    decay_mult: 0
  }
  param {
    lr_mult: 0
    decay_mult: 0
  }
  convolution_param {
    num_output: 128
    pad: 2
    kernel_size: 5
    weight_filler {
      type: "gaussian"
      std: 0.01
    }
    bias_filler {
      type: "constant"
      value: 0
    }
  }
}
layer {
  name: "relu3_b2"
  type: "ReLU"
  bottom: "conv3_b2"
  top: "conv3_b2"
}
layer {
  name: "conv4_b2"
  type: "Convolution"
  bottom: "conv3_b2"
  top: "conv4_b2"
  param {
    lr_mult: 0
    decay_mult: 0
  }
  param {
    lr_mult: 0
    decay_mult: 0
  }
  convolution_param {
    num_output: 256
    pad: 4
    kernel_size: 9
    weight_filler {
      type: "gaussian"
      std: 0.01
    }
    bias_filler {
      type: "constant"
      value: 0
    }
  }
}
layer {
  name: "relu4_b2"
  type: "ReLU"
  bottom: "conv4_b2"
  top: "conv4_b2"
}
layer {
  name: "conv4_b2r"
  type: "Resize"
  bottom: "conv4_b2"
  bottom: "conv4_b1"
  top: "conv4_b2r"
}
layer {
  name: "merge_banks"
  type: "Eltwise"
  bottom: "conv4_b1"
  bottom: "conv4_b2r"
  top: "conv4"
  eltwise_param {
    operation: SUM
  }
}
layer {
  name: "spatial_drop"
  type: "SpatialDropout"
  bottom: "conv4"
  top: "conv4"
  spatial_dropout_param {
    dropout_ratio: 0.5
  }
}
layer {
  name: "conv5"
  type: "Convolution"
  bottom: "conv4"
  top: "conv5"
  param {
    lr_mult: 0
    decay_mult: 0
  }
  param {
    lr_mult: 0
    decay_mult: 0
  }
  convolution_param {
    num_output: 512
    pad: 4
    kernel_size: 9
    weight_filler {
      type: "gaussian"
      std: 0.01
    }
    bias_filler {
      type: "constant"
      value: 0
    }
  }
}
layer {
  name: "relu5"
  type: "ReLU"
  bottom: "conv5"
  top: "conv5"
}
layer {
  name: "conv6"
  type: "Convolution"
  bottom: "conv5"
  top: "conv6"
  param {
    lr_mult: 0
    decay_mult: 0
  }
  param {
    lr_mult: 0
    decay_mult: 0
  }
  convolution_param {
    num_output: 256
    kernel_size: 1
    weight_filler {
      type: "gaussian"
      std: 0.01
    }
    bias_filler {
      type: "constant"
      value: 0
    }
  }
}
layer {
  name: "relu6"
  type: "ReLU"
  bottom: "conv6"
  top: "conv6"
}
layer {
  name: "conv7"
  type: "Convolution"
  bottom: "conv6"
  top: "conv7"
  param {
    lr_mult: 0
    decay_mult: 0
  }
  param {
    lr_mult: 0
    decay_mult: 0
  }
  convolution_param {
    num_output: 256
    kernel_size: 1
    weight_filler {
      type: "gaussian"
      std: 0.01
    }
    bias_filler {
      type: "constant"
      value: 0
    }
  }
}
layer {
  name: "relu7"
  type: "ReLU"
  bottom: "conv7"
  top: "conv7"
}
layer {
  name: "conv8"
  type: "Convolution"
  bottom: "conv7"
  top: "conv8"
  param {
    lr_mult: 0
    decay_mult: 0
  }
  param {
    lr_mult: 0
    decay_mult: 0
  }
  convolution_param {
    num_output: 14
    kernel_size: 1
    weight_filler {
      type: "gaussian"
      std: 0.01
    }
    bias_filler {
      type: "constant"
      value: 0
    }
  }
}
layer {
  name: "conv3_b2r"
  type: "Resize"
  bottom: "conv3_b2"
  bottom: "conv3_b1"
  top: "conv3_b2r"
}
layer {
  name: "concat_f"
  type: "Concat"
  bottom: "conv3_b1"
  bottom: "conv3_b2r"
  bottom: "conv7"
  top: "concat_f"
  concat_param {
    concat_dim: 1
  }
}
layer {
  name: "conv1_f"
  type: "Convolution"
  bottom: "concat_f"
  top: "conv1_f"
  param {
    lr_mult: 0
    decay_mult: 0
  }
  param {
    lr_mult: 0
    decay_mult: 0
  }
  convolution_param {
    num_output: 64
    pad: 3
    kernel_size: 7
    weight_filler {
      type: "gaussian"
      std: 0.01
    }
    bias_filler {
      type: "constant"
    }
  }
}
layer {
  name: "relu1_f"
  type: "ReLU"
  bottom: "conv1_f"
  top: "conv1_f"
}
layer {
  name: "conv2_f"
  type: "Convolution"
  bottom: "conv1_f"
  top: "conv2_f"
  param {
    lr_mult: 0
    decay_mult: 0
  }
  param {
    lr_mult: 0
    decay_mult: 0
  }
  convolution_param {
    num_output: 64
    pad: 6
    kernel_size: 13
    weight_filler {
      type: "gaussian"
      std: 0.01
    }
    bias_filler {
      type: "constant"
    }
  }
}
layer {
  name: "relu2_f"
  type: "ReLU"
  bottom: "conv2_f"
  top: "conv2_f"
}
layer {
  name: "conv3_f"
  type: "Convolution"
  bottom: "conv2_f"
  top: "conv3_f"
  param {
    lr_mult: 0
    decay_mult: 0
  }
  param {
    lr_mult: 0
    decay_mult: 0
  }
  convolution_param {
    num_output: 64
    pad: 6
    kernel_size: 13
    weight_filler {
      type: "gaussian"
      std: 0.01
    }
    bias_filler {
      type: "constant"
    }
  }
}
layer {
  name: "relu3_f"
  type: "ReLU"
  bottom: "conv3_f"
  top: "conv3_f"
}
layer {
  name: "conv4_f"
  type: "Convolution"
  bottom: "conv3_f"
  top: "conv4_f"
  param {
    lr_mult: 0
    decay_mult: 0
  }
  param {
    lr_mult: 0
    decay_mult: 0
  }
  convolution_param {
    num_output: 256
    kernel_size: 1
    weight_filler {
      type: "gaussian"
      std: 0.01
    }
    bias_filler {
      type: "constant"
    }
  }
}
layer {
  name: "relu4_f"
  type: "ReLU"
  bottom: "conv4_f"
  top: "conv4_f"
}
layer {
  name: "conv5_f"
  type: "Convolution"
  bottom: "conv4_f"
  top: "conv5_f"
  param {
    lr_mult: 0
    decay_mult: 0
  }
  param {
    lr_mult: 0
    decay_mult: 0
  }
  convolution_param {
    num_output: 14
    kernel_size: 1
    weight_filler {
      type: "gaussian"
      std: 0.01
    }
    bias_filler {
      type: "constant"
    }
  }
}
layer {
  name: "conv1_ref"
  type: "Convolution"
  bottom: "concat_f"
  top: "conv1_ref"
  param {
    lr_mult: 0
    decay_mult: 0
  }
  param {
    lr_mult: 0
    decay_mult: 0
  }
  convolution_param {
    num_output: 896
    kernel_size: 1
    weight_filler {
      type: "gaussian"
      std: 0.01
    }
    bias_filler {
      type: "constant"
    }
  }
}
layer {
  name: "relu1_ref"
  type: "ReLU"
  bottom: "conv1_ref"
  top: "conv1_ref"
}
layer {
  name: "conv2_ref"
  type: "Convolution"
  bottom: "conv1_ref"
  top: "conv2_ref"
  param {
    lr_mult: 0
    decay_mult: 0
  }
  param {
    lr_mult: 0
    decay_mult: 0
  }
  convolution_param {
    num_output: 896
    pad: 3
    kernel_size: 7
    group: 14
    weight_filler {
      type: "gaussian"
      std: 0.01
    }
    bias_filler {
      type: "constant"
    }
  }
}
layer {
  name: "relu2_ref"
  type: "ReLU"
  bottom: "conv2_ref"
  top: "conv2_ref"
}
layer {
  name: "conv3_ref"
  type: "Convolution"
  bottom: "conv2_ref"
  top: "conv3_ref"
  param {
    lr_mult: 0
    decay_mult: 0
  }
  param {
    lr_mult: 0
    decay_mult: 0
  }
  convolution_param {
    num_output: 896
    pad: 6
    kernel_size: 13
    group: 14
    weight_filler {
      type: "gaussian"
      std: 0.01
    }
    bias_filler {
      type: "constant"
    }
  }
}
layer {
  name: "relu3_ref"
  type: "ReLU"
  bottom: "conv3_ref"
  top: "conv3_ref"
}
layer {
  name: "conv4_ref"
  type: "Convolution"
  bottom: "conv3_ref"
  top: "conv4_ref"
  param {
    lr_mult: 0
    decay_mult: 0
  }
  param {
    lr_mult: 0
    decay_mult: 0
  }
  convolution_param {
    num_output: 896
    pad: 6
    kernel_size: 13
    group: 14
    weight_filler {
      type: "gaussian"
      std: 0.01
    }
    bias_filler {
      type: "constant"
    }
  }
}
layer {
  name: "relu4_ref"
  type: "ReLU"
  bottom: "conv4_ref"
  top: "conv4_ref"
}
layer {
  name: "conv5_ref"
  type: "Convolution"
  bottom: "conv4_ref"
  top: "conv5_ref"
  param {
    lr_mult: 0
    decay_mult: 0
  }
  param {
    lr_mult: 0
    decay_mult: 0
  }
  convolution_param {
    num_output: 3584
    kernel_size: 1
    group: 14
    weight_filler {
      type: "gaussian"
      std: 0.01
    }
    bias_filler {
      type: "constant"
    }
  }
}
layer {
  name: "relu5_ref"
  type: "ReLU"
  bottom: "conv5_ref"
  top: "conv5_ref"
}
layer {
  name: "conv6_ref"
  type: "Convolution"
  bottom: "conv5_ref"
  top: "conv6_ref"
  param {
    lr_mult: 0
    decay_mult: 0
  }
  param {
    lr_mult: 0
    decay_mult: 0
  }
  convolution_param {
    num_output: 14
    kernel_size: 1
    group: 14
    weight_filler {
      type: "gaussian"
      std: 0.01
    }
    bias_filler {
      type: "constant"
    }
  }
}
layer {
  name: "refined_heat_maps"
  type: "Eltwise"
  bottom: "conv8"
  bottom: "conv5_f"
  bottom: "conv6_ref"
  top: "refined_heat_maps"
  include {
    phase: TEST
  }
  eltwise_param {
    operation: SUM
    coeff: 1
    coeff: 1
    coeff: 1
  }
}
layer {
  name: "pred_heat_maps"
  type: "Resize"
  bottom: "refined_heat_maps"
  bottom: "data"
  top: "pred_heat_maps"
  include {
    phase: TEST
  }
}
layer {
  name: "pred_coords"
  type: "CoordsFromHeatMaps"
  bottom: "pred_heat_maps"
  top: "pred_coords"
  include {
    phase: TEST
  }
  pose_coords_from_heat_maps_param {
    heat_map_a: 1
    heat_map_b: 0
    top_k: 40
  }
  is_disp_info: true
}
layer {
  name: "pred_coordsr"
  type: "RescaledPoseCoords"
  bottom: "pred_coords"
  bottom: "aux_info"
  top: "pred_coordsr"
  include {
    phase: TEST
  }
}
I0408 22:41:27.490386 15644 net.cpp:346] Input 0 -> o_data
I0408 22:41:27.490432 15644 net.cpp:346] Input 1 -> aux_info
I0408 22:41:27.490443 15644 net.cpp:346] Input 2 -> gt_coords
I0408 22:41:27.490478 15644 layer_factory.hpp:74] Creating layer aux_info_input_1_split
I0408 22:41:27.490509 15644 net.cpp:89] 
I0408 22:41:27.490516 15644 net.cpp:90] Creating Layer aux_info_input_1_split
I0408 22:41:27.490523 15644 net.cpp:386] aux_info_input_1_split <- aux_info
I0408 22:41:27.490545 15644 net.cpp:344] aux_info_input_1_split -> aux_info_input_1_split_0
I0408 22:41:27.490568 15644 net.cpp:344] aux_info_input_1_split -> aux_info_input_1_split_1
I0408 22:41:27.490581 15644 net.cpp:119] Setting up aux_info_input_1_split
I0408 22:41:27.490604 15644 net.cpp:126] Top shape: 5 5 1 1 (25)
I0408 22:41:27.490622 15644 net.cpp:126] Top shape: 5 5 1 1 (25)
I0408 22:41:27.490638 15644 layer_factory.hpp:74] Creating layer tmasks
I0408 22:41:27.490667 15644 net.cpp:89] 
I0408 22:41:27.490674 15644 net.cpp:90] Creating Layer tmasks
I0408 22:41:27.490687 15644 net.cpp:386] tmasks <- gt_coords
I0408 22:41:27.490694 15644 net.cpp:386] tmasks <- aux_info_input_1_split_0
I0408 22:41:27.490702 15644 net.cpp:344] tmasks -> tmasks
I0408 22:41:27.490713 15644 net.cpp:119] Setting up tmasks
I0408 22:41:27.491078 15644 net.cpp:126] Top shape: 5 1 100 100 (50000)
I0408 22:41:27.491088 15644 layer_factory.hpp:74] Creating layer data
I0408 22:41:27.491099 15644 net.cpp:89] 
I0408 22:41:27.491106 15644 net.cpp:90] Creating Layer data
I0408 22:41:27.491111 15644 net.cpp:386] data <- o_data
I0408 22:41:27.491117 15644 net.cpp:386] data <- tmasks
I0408 22:41:27.491125 15644 net.cpp:344] data -> data
I0408 22:41:27.491135 15644 net.cpp:119] Setting up data
I0408 22:41:27.491147 15644 net.cpp:126] Top shape: 5 4 100 100 (200000)
I0408 22:41:27.491155 15644 layer_factory.hpp:74] Creating layer data_data_0_split
I0408 22:41:27.491163 15644 net.cpp:89] 
I0408 22:41:27.491168 15644 net.cpp:90] Creating Layer data_data_0_split
I0408 22:41:27.491174 15644 net.cpp:386] data_data_0_split <- data
I0408 22:41:27.491181 15644 net.cpp:344] data_data_0_split -> data_data_0_split_0
I0408 22:41:27.491192 15644 net.cpp:344] data_data_0_split -> data_data_0_split_1
I0408 22:41:27.491202 15644 net.cpp:344] data_data_0_split -> data_data_0_split_2
I0408 22:41:27.491212 15644 net.cpp:119] Setting up data_data_0_split
I0408 22:41:27.491222 15644 net.cpp:126] Top shape: 5 4 100 100 (200000)
I0408 22:41:27.491231 15644 net.cpp:126] Top shape: 5 4 100 100 (200000)
I0408 22:41:27.491238 15644 net.cpp:126] Top shape: 5 4 100 100 (200000)
I0408 22:41:27.491245 15644 layer_factory.hpp:74] Creating layer data_b2
I0408 22:41:27.491256 15644 net.cpp:89] 
I0408 22:41:27.491262 15644 net.cpp:90] Creating Layer data_b2
I0408 22:41:27.491268 15644 net.cpp:386] data_b2 <- data_data_0_split_0
I0408 22:41:27.491276 15644 net.cpp:344] data_b2 -> data_b2
I0408 22:41:27.491286 15644 net.cpp:119] Setting up data_b2
I0408 22:41:27.491302 15644 net.cpp:126] Top shape: 5 4 70 70 (98000)
I0408 22:41:27.491309 15644 layer_factory.hpp:74] Creating layer conv1_b1
I0408 22:41:27.491319 15644 net.cpp:89] 
I0408 22:41:27.491327 15644 net.cpp:90] Creating Layer conv1_b1
I0408 22:41:27.491331 15644 net.cpp:386] conv1_b1 <- data_data_0_split_1
I0408 22:41:27.491339 15644 net.cpp:344] conv1_b1 -> conv1_b1
I0408 22:41:27.491353 15644 net.cpp:119] Setting up conv1_b1
I0408 22:41:27.546380 15644 net.cpp:126] Top shape: 5 128 100 100 (6400000)
I0408 22:41:27.546439 15644 layer_factory.hpp:74] Creating layer relu1_b1
I0408 22:41:27.546457 15644 net.cpp:89] 
I0408 22:41:27.546463 15644 net.cpp:90] Creating Layer relu1_b1
I0408 22:41:27.546469 15644 net.cpp:386] relu1_b1 <- conv1_b1
I0408 22:41:27.546480 15644 net.cpp:333] relu1_b1 -> conv1_b1 (in-place)
I0408 22:41:27.546494 15644 net.cpp:119] Setting up relu1_b1
I0408 22:41:27.546569 15644 net.cpp:126] Top shape: 5 128 100 100 (6400000)
I0408 22:41:27.546579 15644 layer_factory.hpp:74] Creating layer pool1_b1
I0408 22:41:27.546599 15644 net.cpp:89] 
I0408 22:41:27.546605 15644 net.cpp:90] Creating Layer pool1_b1
I0408 22:41:27.546610 15644 net.cpp:386] pool1_b1 <- conv1_b1
I0408 22:41:27.546619 15644 net.cpp:344] pool1_b1 -> pool1_b1
I0408 22:41:27.546629 15644 net.cpp:119] Setting up pool1_b1
I0408 22:41:27.546712 15644 net.cpp:126] Top shape: 5 128 50 50 (1600000)
I0408 22:41:27.546721 15644 layer_factory.hpp:74] Creating layer conv2_b1
I0408 22:41:27.546743 15644 net.cpp:89] 
I0408 22:41:27.546751 15644 net.cpp:90] Creating Layer conv2_b1
I0408 22:41:27.546756 15644 net.cpp:386] conv2_b1 <- pool1_b1
I0408 22:41:27.546764 15644 net.cpp:344] conv2_b1 -> conv2_b1
I0408 22:41:27.546775 15644 net.cpp:119] Setting up conv2_b1
I0408 22:41:27.559934 15644 net.cpp:126] Top shape: 5 128 50 50 (1600000)
I0408 22:41:27.559974 15644 layer_factory.hpp:74] Creating layer relu2_b1
I0408 22:41:27.559990 15644 net.cpp:89] 
I0408 22:41:27.559996 15644 net.cpp:90] Creating Layer relu2_b1
I0408 22:41:27.560029 15644 net.cpp:386] relu2_b1 <- conv2_b1
I0408 22:41:27.560041 15644 net.cpp:333] relu2_b1 -> conv2_b1 (in-place)
I0408 22:41:27.560055 15644 net.cpp:119] Setting up relu2_b1
I0408 22:41:27.560114 15644 net.cpp:126] Top shape: 5 128 50 50 (1600000)
I0408 22:41:27.560124 15644 layer_factory.hpp:74] Creating layer pool2_b1
I0408 22:41:27.560135 15644 net.cpp:89] 
I0408 22:41:27.560142 15644 net.cpp:90] Creating Layer pool2_b1
I0408 22:41:27.560148 15644 net.cpp:386] pool2_b1 <- conv2_b1
I0408 22:41:27.560156 15644 net.cpp:344] pool2_b1 -> pool2_b1
I0408 22:41:27.560166 15644 net.cpp:119] Setting up pool2_b1
I0408 22:41:27.560322 15644 net.cpp:126] Top shape: 5 128 25 25 (400000)
I0408 22:41:27.560334 15644 layer_factory.hpp:74] Creating layer conv3_b1
I0408 22:41:27.560348 15644 net.cpp:89] 
I0408 22:41:27.560353 15644 net.cpp:90] Creating Layer conv3_b1
I0408 22:41:27.560359 15644 net.cpp:386] conv3_b1 <- pool2_b1
I0408 22:41:27.560369 15644 net.cpp:344] conv3_b1 -> conv3_b1
I0408 22:41:27.560380 15644 net.cpp:119] Setting up conv3_b1
I0408 22:41:27.573644 15644 net.cpp:126] Top shape: 5 128 25 25 (400000)
I0408 22:41:27.573684 15644 layer_factory.hpp:74] Creating layer relu3_b1
I0408 22:41:27.573699 15644 net.cpp:89] 
I0408 22:41:27.573704 15644 net.cpp:90] Creating Layer relu3_b1
I0408 22:41:27.573711 15644 net.cpp:386] relu3_b1 <- conv3_b1
I0408 22:41:27.573722 15644 net.cpp:333] relu3_b1 -> conv3_b1 (in-place)
I0408 22:41:27.573735 15644 net.cpp:119] Setting up relu3_b1
I0408 22:41:27.573796 15644 net.cpp:126] Top shape: 5 128 25 25 (400000)
I0408 22:41:27.573804 15644 layer_factory.hpp:74] Creating layer conv3_b1_relu3_b1_0_split
I0408 22:41:27.573814 15644 net.cpp:89] 
I0408 22:41:27.573822 15644 net.cpp:90] Creating Layer conv3_b1_relu3_b1_0_split
I0408 22:41:27.573827 15644 net.cpp:386] conv3_b1_relu3_b1_0_split <- conv3_b1
I0408 22:41:27.573837 15644 net.cpp:344] conv3_b1_relu3_b1_0_split -> conv3_b1_relu3_b1_0_split_0
I0408 22:41:27.573849 15644 net.cpp:344] conv3_b1_relu3_b1_0_split -> conv3_b1_relu3_b1_0_split_1
I0408 22:41:27.573860 15644 net.cpp:344] conv3_b1_relu3_b1_0_split -> conv3_b1_relu3_b1_0_split_2
I0408 22:41:27.573870 15644 net.cpp:119] Setting up conv3_b1_relu3_b1_0_split
I0408 22:41:27.573882 15644 net.cpp:126] Top shape: 5 128 25 25 (400000)
I0408 22:41:27.573891 15644 net.cpp:126] Top shape: 5 128 25 25 (400000)
I0408 22:41:27.573897 15644 net.cpp:126] Top shape: 5 128 25 25 (400000)
I0408 22:41:27.573904 15644 layer_factory.hpp:74] Creating layer conv4_b1
I0408 22:41:27.573916 15644 net.cpp:89] 
I0408 22:41:27.573922 15644 net.cpp:90] Creating Layer conv4_b1
I0408 22:41:27.573928 15644 net.cpp:386] conv4_b1 <- conv3_b1_relu3_b1_0_split_0
I0408 22:41:27.573937 15644 net.cpp:344] conv4_b1 -> conv4_b1
I0408 22:41:27.573947 15644 net.cpp:119] Setting up conv4_b1
I0408 22:41:27.658351 15644 net.cpp:126] Top shape: 5 256 25 25 (800000)
I0408 22:41:27.658463 15644 layer_factory.hpp:74] Creating layer relu4_b1
I0408 22:41:27.658499 15644 net.cpp:89] 
I0408 22:41:27.658521 15644 net.cpp:90] Creating Layer relu4_b1
I0408 22:41:27.658546 15644 net.cpp:386] relu4_b1 <- conv4_b1
I0408 22:41:27.658573 15644 net.cpp:333] relu4_b1 -> conv4_b1 (in-place)
I0408 22:41:27.658604 15644 net.cpp:119] Setting up relu4_b1
I0408 22:41:27.658689 15644 net.cpp:126] Top shape: 5 256 25 25 (800000)
I0408 22:41:27.658716 15644 layer_factory.hpp:74] Creating layer conv4_b1_relu4_b1_0_split
I0408 22:41:27.658746 15644 net.cpp:89] 
I0408 22:41:27.658769 15644 net.cpp:90] Creating Layer conv4_b1_relu4_b1_0_split
I0408 22:41:27.658793 15644 net.cpp:386] conv4_b1_relu4_b1_0_split <- conv4_b1
I0408 22:41:27.658820 15644 net.cpp:344] conv4_b1_relu4_b1_0_split -> conv4_b1_relu4_b1_0_split_0
I0408 22:41:27.658849 15644 net.cpp:344] conv4_b1_relu4_b1_0_split -> conv4_b1_relu4_b1_0_split_1
I0408 22:41:27.658879 15644 net.cpp:119] Setting up conv4_b1_relu4_b1_0_split
I0408 22:41:27.658906 15644 net.cpp:126] Top shape: 5 256 25 25 (800000)
I0408 22:41:27.658931 15644 net.cpp:126] Top shape: 5 256 25 25 (800000)
I0408 22:41:27.658972 15644 layer_factory.hpp:74] Creating layer conv1_b2
I0408 22:41:27.659003 15644 net.cpp:89] 
I0408 22:41:27.659027 15644 net.cpp:90] Creating Layer conv1_b2
I0408 22:41:27.659050 15644 net.cpp:386] conv1_b2 <- data_b2
I0408 22:41:27.659077 15644 net.cpp:344] conv1_b2 -> conv1_b2
I0408 22:41:27.659106 15644 net.cpp:119] Setting up conv1_b2
I0408 22:41:27.660372 15644 net.cpp:126] Top shape: 5 128 70 70 (3136000)
I0408 22:41:27.660536 15644 layer_factory.hpp:74] Creating layer relu1_b2
I0408 22:41:27.660562 15644 net.cpp:89] 
I0408 22:41:27.660569 15644 net.cpp:90] Creating Layer relu1_b2
I0408 22:41:27.660583 15644 net.cpp:386] relu1_b2 <- conv1_b2
I0408 22:41:27.660604 15644 net.cpp:333] relu1_b2 -> conv1_b2 (in-place)
I0408 22:41:27.660632 15644 net.cpp:119] Setting up relu1_b2
I0408 22:41:27.660717 15644 net.cpp:126] Top shape: 5 128 70 70 (3136000)
I0408 22:41:27.660753 15644 layer_factory.hpp:74] Creating layer pool1_b2
I0408 22:41:27.660783 15644 net.cpp:89] 
I0408 22:41:27.660805 15644 net.cpp:90] Creating Layer pool1_b2
I0408 22:41:27.660828 15644 net.cpp:386] pool1_b2 <- conv1_b2
I0408 22:41:27.660854 15644 net.cpp:344] pool1_b2 -> pool1_b2
I0408 22:41:27.660882 15644 net.cpp:119] Setting up pool1_b2
I0408 22:41:27.661108 15644 net.cpp:126] Top shape: 5 128 35 35 (784000)
I0408 22:41:27.661140 15644 layer_factory.hpp:74] Creating layer conv2_b2
I0408 22:41:27.661157 15644 net.cpp:89] 
I0408 22:41:27.661162 15644 net.cpp:90] Creating Layer conv2_b2
I0408 22:41:27.661169 15644 net.cpp:386] conv2_b2 <- pool1_b2
I0408 22:41:27.661178 15644 net.cpp:344] conv2_b2 -> conv2_b2
I0408 22:41:27.661209 15644 net.cpp:119] Setting up conv2_b2
I0408 22:41:27.675017 15644 net.cpp:126] Top shape: 5 128 35 35 (784000)
I0408 22:41:27.675055 15644 layer_factory.hpp:74] Creating layer relu2_b2
I0408 22:41:27.675071 15644 net.cpp:89] 
I0408 22:41:27.675076 15644 net.cpp:90] Creating Layer relu2_b2
I0408 22:41:27.675083 15644 net.cpp:386] relu2_b2 <- conv2_b2
I0408 22:41:27.675094 15644 net.cpp:333] relu2_b2 -> conv2_b2 (in-place)
I0408 22:41:27.675137 15644 net.cpp:119] Setting up relu2_b2
I0408 22:41:27.675207 15644 net.cpp:126] Top shape: 5 128 35 35 (784000)
I0408 22:41:27.675217 15644 layer_factory.hpp:74] Creating layer pool2_b2
I0408 22:41:27.675230 15644 net.cpp:89] 
I0408 22:41:27.675236 15644 net.cpp:90] Creating Layer pool2_b2
I0408 22:41:27.675242 15644 net.cpp:386] pool2_b2 <- conv2_b2
I0408 22:41:27.675251 15644 net.cpp:344] pool2_b2 -> pool2_b2
I0408 22:41:27.675263 15644 net.cpp:119] Setting up pool2_b2
I0408 22:41:27.675326 15644 net.cpp:126] Top shape: 5 128 18 18 (207360)
I0408 22:41:27.675335 15644 layer_factory.hpp:74] Creating layer conv3_b2
I0408 22:41:27.675348 15644 net.cpp:89] 
I0408 22:41:27.675354 15644 net.cpp:90] Creating Layer conv3_b2
I0408 22:41:27.675360 15644 net.cpp:386] conv3_b2 <- pool2_b2
I0408 22:41:27.675369 15644 net.cpp:344] conv3_b2 -> conv3_b2
I0408 22:41:27.675380 15644 net.cpp:119] Setting up conv3_b2
I0408 22:41:27.688554 15644 net.cpp:126] Top shape: 5 128 18 18 (207360)
I0408 22:41:27.688583 15644 layer_factory.hpp:74] Creating layer relu3_b2
I0408 22:41:27.688597 15644 net.cpp:89] 
I0408 22:41:27.688604 15644 net.cpp:90] Creating Layer relu3_b2
I0408 22:41:27.688611 15644 net.cpp:386] relu3_b2 <- conv3_b2
I0408 22:41:27.688621 15644 net.cpp:333] relu3_b2 -> conv3_b2 (in-place)
I0408 22:41:27.688632 15644 net.cpp:119] Setting up relu3_b2
I0408 22:41:27.688706 15644 net.cpp:126] Top shape: 5 128 18 18 (207360)
I0408 22:41:27.688742 15644 layer_factory.hpp:74] Creating layer conv3_b2_relu3_b2_0_split
I0408 22:41:27.688772 15644 net.cpp:89] 
I0408 22:41:27.688796 15644 net.cpp:90] Creating Layer conv3_b2_relu3_b2_0_split
I0408 22:41:27.688817 15644 net.cpp:386] conv3_b2_relu3_b2_0_split <- conv3_b2
I0408 22:41:27.688846 15644 net.cpp:344] conv3_b2_relu3_b2_0_split -> conv3_b2_relu3_b2_0_split_0
I0408 22:41:27.688879 15644 net.cpp:344] conv3_b2_relu3_b2_0_split -> conv3_b2_relu3_b2_0_split_1
I0408 22:41:27.688922 15644 net.cpp:119] Setting up conv3_b2_relu3_b2_0_split
I0408 22:41:27.688971 15644 net.cpp:126] Top shape: 5 128 18 18 (207360)
I0408 22:41:27.688997 15644 net.cpp:126] Top shape: 5 128 18 18 (207360)
I0408 22:41:27.689018 15644 layer_factory.hpp:74] Creating layer conv4_b2
I0408 22:41:27.689049 15644 net.cpp:89] 
I0408 22:41:27.689071 15644 net.cpp:90] Creating Layer conv4_b2
I0408 22:41:27.689095 15644 net.cpp:386] conv4_b2 <- conv3_b2_relu3_b2_0_split_0
I0408 22:41:27.689128 15644 net.cpp:344] conv4_b2 -> conv4_b2
I0408 22:41:27.689158 15644 net.cpp:119] Setting up conv4_b2
I0408 22:41:27.771446 15644 net.cpp:126] Top shape: 5 256 18 18 (414720)
I0408 22:41:27.771544 15644 layer_factory.hpp:74] Creating layer relu4_b2
I0408 22:41:27.771584 15644 net.cpp:89] 
I0408 22:41:27.771606 15644 net.cpp:90] Creating Layer relu4_b2
I0408 22:41:27.771631 15644 net.cpp:386] relu4_b2 <- conv4_b2
I0408 22:41:27.771661 15644 net.cpp:333] relu4_b2 -> conv4_b2 (in-place)
I0408 22:41:27.771692 15644 net.cpp:119] Setting up relu4_b2
I0408 22:41:27.771885 15644 net.cpp:126] Top shape: 5 256 18 18 (414720)
I0408 22:41:27.771900 15644 layer_factory.hpp:74] Creating layer conv4_b2r
I0408 22:41:27.771909 15644 net.cpp:89] 
I0408 22:41:27.771915 15644 net.cpp:90] Creating Layer conv4_b2r
I0408 22:41:27.771921 15644 net.cpp:386] conv4_b2r <- conv4_b2
I0408 22:41:27.771929 15644 net.cpp:386] conv4_b2r <- conv4_b1_relu4_b1_0_split_0
I0408 22:41:27.771937 15644 net.cpp:344] conv4_b2r -> conv4_b2r
I0408 22:41:27.771970 15644 net.cpp:119] Setting up conv4_b2r
I0408 22:41:27.772004 15644 net.cpp:126] Top shape: 5 256 25 25 (800000)
I0408 22:41:27.772029 15644 layer_factory.hpp:74] Creating layer merge_banks
I0408 22:41:27.772063 15644 net.cpp:89] 
I0408 22:41:27.772088 15644 net.cpp:90] Creating Layer merge_banks
I0408 22:41:27.772111 15644 net.cpp:386] merge_banks <- conv4_b1_relu4_b1_0_split_1
I0408 22:41:27.772135 15644 net.cpp:386] merge_banks <- conv4_b2r
I0408 22:41:27.772166 15644 net.cpp:344] merge_banks -> conv4
I0408 22:41:27.772198 15644 net.cpp:119] Setting up merge_banks
I0408 22:41:27.772235 15644 net.cpp:126] Top shape: 5 256 25 25 (800000)
I0408 22:41:27.772260 15644 layer_factory.hpp:74] Creating layer spatial_drop
I0408 22:41:27.772289 15644 net.cpp:89] 
I0408 22:41:27.772311 15644 net.cpp:90] Creating Layer spatial_drop
I0408 22:41:27.772333 15644 net.cpp:386] spatial_drop <- conv4
I0408 22:41:27.772362 15644 net.cpp:333] spatial_drop -> conv4 (in-place)
I0408 22:41:27.772392 15644 net.cpp:119] Setting up spatial_drop
I0408 22:41:27.772424 15644 net.cpp:126] Top shape: 5 256 25 25 (800000)
I0408 22:41:27.772449 15644 layer_factory.hpp:74] Creating layer conv5
I0408 22:41:27.772477 15644 net.cpp:89] 
I0408 22:41:27.772500 15644 net.cpp:90] Creating Layer conv5
I0408 22:41:27.772524 15644 net.cpp:386] conv5 <- conv4
I0408 22:41:27.772552 15644 net.cpp:344] conv5 -> conv5
I0408 22:41:27.772586 15644 net.cpp:119] Setting up conv5
I0408 22:41:28.094514 15644 net.cpp:126] Top shape: 5 512 25 25 (1600000)
I0408 22:41:28.094557 15644 layer_factory.hpp:74] Creating layer relu5
I0408 22:41:28.094578 15644 net.cpp:89] 
I0408 22:41:28.094583 15644 net.cpp:90] Creating Layer relu5
I0408 22:41:28.094590 15644 net.cpp:386] relu5 <- conv5
I0408 22:41:28.094601 15644 net.cpp:333] relu5 -> conv5 (in-place)
I0408 22:41:28.094614 15644 net.cpp:119] Setting up relu5
I0408 22:41:28.094696 15644 net.cpp:126] Top shape: 5 512 25 25 (1600000)
I0408 22:41:28.094707 15644 layer_factory.hpp:74] Creating layer conv6
I0408 22:41:28.094727 15644 net.cpp:89] 
I0408 22:41:28.094733 15644 net.cpp:90] Creating Layer conv6
I0408 22:41:28.094739 15644 net.cpp:386] conv6 <- conv5
I0408 22:41:28.094750 15644 net.cpp:344] conv6 -> conv6
I0408 22:41:28.094761 15644 net.cpp:119] Setting up conv6
I0408 22:41:28.099138 15644 net.cpp:126] Top shape: 5 256 25 25 (800000)
I0408 22:41:28.099154 15644 layer_factory.hpp:74] Creating layer relu6
I0408 22:41:28.099165 15644 net.cpp:89] 
I0408 22:41:28.099171 15644 net.cpp:90] Creating Layer relu6
I0408 22:41:28.099177 15644 net.cpp:386] relu6 <- conv6
I0408 22:41:28.099184 15644 net.cpp:333] relu6 -> conv6 (in-place)
I0408 22:41:28.099215 15644 net.cpp:119] Setting up relu6
I0408 22:41:28.099297 15644 net.cpp:126] Top shape: 5 256 25 25 (800000)
I0408 22:41:28.099308 15644 layer_factory.hpp:74] Creating layer conv7
I0408 22:41:28.099326 15644 net.cpp:89] 
I0408 22:41:28.099331 15644 net.cpp:90] Creating Layer conv7
I0408 22:41:28.099337 15644 net.cpp:386] conv7 <- conv6
I0408 22:41:28.099346 15644 net.cpp:344] conv7 -> conv7
I0408 22:41:28.099355 15644 net.cpp:119] Setting up conv7
I0408 22:41:28.101723 15644 net.cpp:126] Top shape: 5 256 25 25 (800000)
I0408 22:41:28.101739 15644 layer_factory.hpp:74] Creating layer relu7
I0408 22:41:28.101752 15644 net.cpp:89] 
I0408 22:41:28.101757 15644 net.cpp:90] Creating Layer relu7
I0408 22:41:28.101763 15644 net.cpp:386] relu7 <- conv7
I0408 22:41:28.101770 15644 net.cpp:333] relu7 -> conv7 (in-place)
I0408 22:41:28.101778 15644 net.cpp:119] Setting up relu7
I0408 22:41:28.101935 15644 net.cpp:126] Top shape: 5 256 25 25 (800000)
I0408 22:41:28.101946 15644 layer_factory.hpp:74] Creating layer conv7_relu7_0_split
I0408 22:41:28.101955 15644 net.cpp:89] 
I0408 22:41:28.101963 15644 net.cpp:90] Creating Layer conv7_relu7_0_split
I0408 22:41:28.101969 15644 net.cpp:386] conv7_relu7_0_split <- conv7
I0408 22:41:28.101977 15644 net.cpp:344] conv7_relu7_0_split -> conv7_relu7_0_split_0
I0408 22:41:28.101987 15644 net.cpp:344] conv7_relu7_0_split -> conv7_relu7_0_split_1
I0408 22:41:28.101996 15644 net.cpp:119] Setting up conv7_relu7_0_split
I0408 22:41:28.102013 15644 net.cpp:126] Top shape: 5 256 25 25 (800000)
I0408 22:41:28.102020 15644 net.cpp:126] Top shape: 5 256 25 25 (800000)
I0408 22:41:28.102061 15644 layer_factory.hpp:74] Creating layer conv8
I0408 22:41:28.102085 15644 net.cpp:89] 
I0408 22:41:28.102092 15644 net.cpp:90] Creating Layer conv8
I0408 22:41:28.102098 15644 net.cpp:386] conv8 <- conv7_relu7_0_split_0
I0408 22:41:28.102115 15644 net.cpp:344] conv8 -> conv8
I0408 22:41:28.102125 15644 net.cpp:119] Setting up conv8
I0408 22:41:28.102548 15644 net.cpp:126] Top shape: 5 14 25 25 (43750)
I0408 22:41:28.102563 15644 layer_factory.hpp:74] Creating layer conv3_b2r
I0408 22:41:28.102572 15644 net.cpp:89] 
I0408 22:41:28.102578 15644 net.cpp:90] Creating Layer conv3_b2r
I0408 22:41:28.102583 15644 net.cpp:386] conv3_b2r <- conv3_b2_relu3_b2_0_split_1
I0408 22:41:28.102591 15644 net.cpp:386] conv3_b2r <- conv3_b1_relu3_b1_0_split_1
I0408 22:41:28.102602 15644 net.cpp:344] conv3_b2r -> conv3_b2r
I0408 22:41:28.102612 15644 net.cpp:119] Setting up conv3_b2r
I0408 22:41:28.102625 15644 net.cpp:126] Top shape: 5 128 25 25 (400000)
I0408 22:41:28.102632 15644 layer_factory.hpp:74] Creating layer concat_f
I0408 22:41:28.102643 15644 net.cpp:89] 
I0408 22:41:28.102649 15644 net.cpp:90] Creating Layer concat_f
I0408 22:41:28.102654 15644 net.cpp:386] concat_f <- conv3_b1_relu3_b1_0_split_2
I0408 22:41:28.102661 15644 net.cpp:386] concat_f <- conv3_b2r
I0408 22:41:28.102668 15644 net.cpp:386] concat_f <- conv7_relu7_0_split_1
I0408 22:41:28.102675 15644 net.cpp:344] concat_f -> concat_f
I0408 22:41:28.102684 15644 net.cpp:119] Setting up concat_f
I0408 22:41:28.102694 15644 net.cpp:126] Top shape: 5 512 25 25 (1600000)
I0408 22:41:28.102701 15644 layer_factory.hpp:74] Creating layer concat_f_concat_f_0_split
I0408 22:41:28.102708 15644 net.cpp:89] 
I0408 22:41:28.102721 15644 net.cpp:90] Creating Layer concat_f_concat_f_0_split
I0408 22:41:28.102727 15644 net.cpp:386] concat_f_concat_f_0_split <- concat_f
I0408 22:41:28.102744 15644 net.cpp:344] concat_f_concat_f_0_split -> concat_f_concat_f_0_split_0
I0408 22:41:28.102753 15644 net.cpp:344] concat_f_concat_f_0_split -> concat_f_concat_f_0_split_1
I0408 22:41:28.102761 15644 net.cpp:119] Setting up concat_f_concat_f_0_split
I0408 22:41:28.102777 15644 net.cpp:126] Top shape: 5 512 25 25 (1600000)
I0408 22:41:28.102784 15644 net.cpp:126] Top shape: 5 512 25 25 (1600000)
I0408 22:41:28.102790 15644 layer_factory.hpp:74] Creating layer conv1_f
I0408 22:41:28.102802 15644 net.cpp:89] 
I0408 22:41:28.102838 15644 net.cpp:90] Creating Layer conv1_f
I0408 22:41:28.102856 15644 net.cpp:386] conv1_f <- concat_f_concat_f_0_split_0
I0408 22:41:28.102885 15644 net.cpp:344] conv1_f -> conv1_f
I0408 22:41:28.102895 15644 net.cpp:119] Setting up conv1_f
I0408 22:41:28.152186 15644 net.cpp:126] Top shape: 5 64 25 25 (200000)
I0408 22:41:28.152220 15644 layer_factory.hpp:74] Creating layer relu1_f
I0408 22:41:28.152235 15644 net.cpp:89] 
I0408 22:41:28.152240 15644 net.cpp:90] Creating Layer relu1_f
I0408 22:41:28.152248 15644 net.cpp:386] relu1_f <- conv1_f
I0408 22:41:28.152261 15644 net.cpp:333] relu1_f -> conv1_f (in-place)
I0408 22:41:28.152272 15644 net.cpp:119] Setting up relu1_f
I0408 22:41:28.152349 15644 net.cpp:126] Top shape: 5 64 25 25 (200000)
I0408 22:41:28.152390 15644 layer_factory.hpp:74] Creating layer conv2_f
I0408 22:41:28.152406 15644 net.cpp:89] 
I0408 22:41:28.152420 15644 net.cpp:90] Creating Layer conv2_f
I0408 22:41:28.152426 15644 net.cpp:386] conv2_f <- conv1_f
I0408 22:41:28.152444 15644 net.cpp:344] conv2_f -> conv2_f
I0408 22:41:28.152456 15644 net.cpp:119] Setting up conv2_f
I0408 22:41:28.174129 15644 net.cpp:126] Top shape: 5 64 25 25 (200000)
I0408 22:41:28.174255 15644 layer_factory.hpp:74] Creating layer relu2_f
I0408 22:41:28.174293 15644 net.cpp:89] 
I0408 22:41:28.174317 15644 net.cpp:90] Creating Layer relu2_f
I0408 22:41:28.174345 15644 net.cpp:386] relu2_f <- conv2_f
I0408 22:41:28.174373 15644 net.cpp:333] relu2_f -> conv2_f (in-place)
I0408 22:41:28.174404 15644 net.cpp:119] Setting up relu2_f
I0408 22:41:28.174495 15644 net.cpp:126] Top shape: 5 64 25 25 (200000)
I0408 22:41:28.174525 15644 layer_factory.hpp:74] Creating layer conv3_f
I0408 22:41:28.174557 15644 net.cpp:89] 
I0408 22:41:28.174581 15644 net.cpp:90] Creating Layer conv3_f
I0408 22:41:28.174603 15644 net.cpp:386] conv3_f <- conv2_f
I0408 22:41:28.174631 15644 net.cpp:344] conv3_f -> conv3_f
I0408 22:41:28.174662 15644 net.cpp:119] Setting up conv3_f
I0408 22:41:28.197684 15644 net.cpp:126] Top shape: 5 64 25 25 (200000)
I0408 22:41:28.197720 15644 layer_factory.hpp:74] Creating layer relu3_f
I0408 22:41:28.197736 15644 net.cpp:89] 
I0408 22:41:28.197741 15644 net.cpp:90] Creating Layer relu3_f
I0408 22:41:28.197748 15644 net.cpp:386] relu3_f <- conv3_f
I0408 22:41:28.197762 15644 net.cpp:333] relu3_f -> conv3_f (in-place)
I0408 22:41:28.197799 15644 net.cpp:119] Setting up relu3_f
I0408 22:41:28.197886 15644 net.cpp:126] Top shape: 5 64 25 25 (200000)
I0408 22:41:28.197897 15644 layer_factory.hpp:74] Creating layer conv4_f
I0408 22:41:28.197911 15644 net.cpp:89] 
I0408 22:41:28.197935 15644 net.cpp:90] Creating Layer conv4_f
I0408 22:41:28.197959 15644 net.cpp:386] conv4_f <- conv3_f
I0408 22:41:28.197989 15644 net.cpp:344] conv4_f -> conv4_f
I0408 22:41:28.198019 15644 net.cpp:119] Setting up conv4_f
I0408 22:41:28.198894 15644 net.cpp:126] Top shape: 5 256 25 25 (800000)
I0408 22:41:28.198932 15644 layer_factory.hpp:74] Creating layer relu4_f
I0408 22:41:28.198961 15644 net.cpp:89] 
I0408 22:41:28.198984 15644 net.cpp:90] Creating Layer relu4_f
I0408 22:41:28.199008 15644 net.cpp:386] relu4_f <- conv4_f
I0408 22:41:28.199033 15644 net.cpp:333] relu4_f -> conv4_f (in-place)
I0408 22:41:28.199061 15644 net.cpp:119] Setting up relu4_f
I0408 22:41:28.199246 15644 net.cpp:126] Top shape: 5 256 25 25 (800000)
I0408 22:41:28.199280 15644 layer_factory.hpp:74] Creating layer conv5_f
I0408 22:41:28.199311 15644 net.cpp:89] 
I0408 22:41:28.199337 15644 net.cpp:90] Creating Layer conv5_f
I0408 22:41:28.199360 15644 net.cpp:386] conv5_f <- conv4_f
I0408 22:41:28.199390 15644 net.cpp:344] conv5_f -> conv5_f
I0408 22:41:28.199420 15644 net.cpp:119] Setting up conv5_f
I0408 22:41:28.199863 15644 net.cpp:126] Top shape: 5 14 25 25 (43750)
I0408 22:41:28.199906 15644 layer_factory.hpp:74] Creating layer conv1_ref
I0408 22:41:28.199941 15644 net.cpp:89] 
I0408 22:41:28.199965 15644 net.cpp:90] Creating Layer conv1_ref
I0408 22:41:28.199990 15644 net.cpp:386] conv1_ref <- concat_f_concat_f_0_split_1
I0408 22:41:28.200021 15644 net.cpp:344] conv1_ref -> conv1_ref
I0408 22:41:28.200067 15644 net.cpp:119] Setting up conv1_ref
I0408 22:41:28.215926 15644 net.cpp:126] Top shape: 5 896 25 25 (2800000)
I0408 22:41:28.216212 15644 layer_factory.hpp:74] Creating layer relu1_ref
I0408 22:41:28.216264 15644 net.cpp:89] 
I0408 22:41:28.216291 15644 net.cpp:90] Creating Layer relu1_ref
I0408 22:41:28.216318 15644 net.cpp:386] relu1_ref <- conv1_ref
I0408 22:41:28.216387 15644 net.cpp:333] relu1_ref -> conv1_ref (in-place)
I0408 22:41:28.216423 15644 net.cpp:119] Setting up relu1_ref
I0408 22:41:28.216591 15644 net.cpp:126] Top shape: 5 896 25 25 (2800000)
I0408 22:41:28.216634 15644 layer_factory.hpp:74] Creating layer conv2_ref
I0408 22:41:28.216675 15644 net.cpp:89] 
I0408 22:41:28.216701 15644 net.cpp:90] Creating Layer conv2_ref
I0408 22:41:28.216724 15644 net.cpp:386] conv2_ref <- conv1_ref
I0408 22:41:28.216755 15644 net.cpp:344] conv2_ref -> conv2_ref
I0408 22:41:28.216789 15644 net.cpp:119] Setting up conv2_ref
I0408 22:41:28.311801 15644 net.cpp:126] Top shape: 5 896 25 25 (2800000)
I0408 22:41:28.311843 15644 layer_factory.hpp:74] Creating layer relu2_ref
I0408 22:41:28.311858 15644 net.cpp:89] 
I0408 22:41:28.311863 15644 net.cpp:90] Creating Layer relu2_ref
I0408 22:41:28.311872 15644 net.cpp:386] relu2_ref <- conv2_ref
I0408 22:41:28.311882 15644 net.cpp:333] relu2_ref -> conv2_ref (in-place)
I0408 22:41:28.311893 15644 net.cpp:119] Setting up relu2_ref
I0408 22:41:28.312005 15644 net.cpp:126] Top shape: 5 896 25 25 (2800000)
I0408 22:41:28.312017 15644 layer_factory.hpp:74] Creating layer conv3_ref
I0408 22:41:28.312039 15644 net.cpp:89] 
I0408 22:41:28.312044 15644 net.cpp:90] Creating Layer conv3_ref
I0408 22:41:28.312050 15644 net.cpp:386] conv3_ref <- conv2_ref
I0408 22:41:28.312069 15644 net.cpp:344] conv3_ref -> conv3_ref
I0408 22:41:28.312080 15644 net.cpp:119] Setting up conv3_ref
I0408 22:41:28.615511 15644 net.cpp:126] Top shape: 5 896 25 25 (2800000)
I0408 22:41:28.615555 15644 layer_factory.hpp:74] Creating layer relu3_ref
I0408 22:41:28.615571 15644 net.cpp:89] 
I0408 22:41:28.615576 15644 net.cpp:90] Creating Layer relu3_ref
I0408 22:41:28.615583 15644 net.cpp:386] relu3_ref <- conv3_ref
I0408 22:41:28.615594 15644 net.cpp:333] relu3_ref -> conv3_ref (in-place)
I0408 22:41:28.615607 15644 net.cpp:119] Setting up relu3_ref
I0408 22:41:28.615684 15644 net.cpp:126] Top shape: 5 896 25 25 (2800000)
I0408 22:41:28.615694 15644 layer_factory.hpp:74] Creating layer conv4_ref
I0408 22:41:28.615721 15644 net.cpp:89] 
I0408 22:41:28.615727 15644 net.cpp:90] Creating Layer conv4_ref
I0408 22:41:28.615733 15644 net.cpp:386] conv4_ref <- conv3_ref
I0408 22:41:28.615744 15644 net.cpp:344] conv4_ref -> conv4_ref
I0408 22:41:28.615756 15644 net.cpp:119] Setting up conv4_ref
I0408 22:41:28.923593 15644 net.cpp:126] Top shape: 5 896 25 25 (2800000)
I0408 22:41:28.923640 15644 layer_factory.hpp:74] Creating layer relu4_ref
I0408 22:41:28.923657 15644 net.cpp:89] 
I0408 22:41:28.923662 15644 net.cpp:90] Creating Layer relu4_ref
I0408 22:41:28.923671 15644 net.cpp:386] relu4_ref <- conv4_ref
I0408 22:41:28.923682 15644 net.cpp:333] relu4_ref -> conv4_ref (in-place)
I0408 22:41:28.923694 15644 net.cpp:119] Setting up relu4_ref
I0408 22:41:28.923871 15644 net.cpp:126] Top shape: 5 896 25 25 (2800000)
I0408 22:41:28.923883 15644 layer_factory.hpp:74] Creating layer conv5_ref
I0408 22:41:28.923900 15644 net.cpp:89] 
I0408 22:41:28.923907 15644 net.cpp:90] Creating Layer conv5_ref
I0408 22:41:28.923913 15644 net.cpp:386] conv5_ref <- conv4_ref
I0408 22:41:28.923923 15644 net.cpp:344] conv5_ref -> conv5_ref
I0408 22:41:28.923934 15644 net.cpp:119] Setting up conv5_ref
I0408 22:41:28.935057 15644 net.cpp:126] Top shape: 5 3584 25 25 (11200000)
I0408 22:41:28.935091 15644 layer_factory.hpp:74] Creating layer relu5_ref
I0408 22:41:28.935103 15644 net.cpp:89] 
I0408 22:41:28.935109 15644 net.cpp:90] Creating Layer relu5_ref
I0408 22:41:28.935117 15644 net.cpp:386] relu5_ref <- conv5_ref
I0408 22:41:28.935133 15644 net.cpp:333] relu5_ref -> conv5_ref (in-place)
I0408 22:41:28.935173 15644 net.cpp:119] Setting up relu5_ref
I0408 22:41:28.935277 15644 net.cpp:126] Top shape: 5 3584 25 25 (11200000)
I0408 22:41:28.935287 15644 layer_factory.hpp:74] Creating layer conv6_ref
I0408 22:41:28.935307 15644 net.cpp:89] 
I0408 22:41:28.935312 15644 net.cpp:90] Creating Layer conv6_ref
I0408 22:41:28.935318 15644 net.cpp:386] conv6_ref <- conv5_ref
I0408 22:41:28.935330 15644 net.cpp:344] conv6_ref -> conv6_ref
I0408 22:41:28.935341 15644 net.cpp:119] Setting up conv6_ref
I0408 22:41:28.939424 15644 net.cpp:126] Top shape: 5 14 25 25 (43750)
I0408 22:41:28.939446 15644 layer_factory.hpp:74] Creating layer refined_heat_maps
I0408 22:41:28.939465 15644 net.cpp:89] 
I0408 22:41:28.939470 15644 net.cpp:90] Creating Layer refined_heat_maps
I0408 22:41:28.939476 15644 net.cpp:386] refined_heat_maps <- conv8
I0408 22:41:28.939484 15644 net.cpp:386] refined_heat_maps <- conv5_f
I0408 22:41:28.939491 15644 net.cpp:386] refined_heat_maps <- conv6_ref
I0408 22:41:28.939501 15644 net.cpp:344] refined_heat_maps -> refined_heat_maps
I0408 22:41:28.939515 15644 net.cpp:119] Setting up refined_heat_maps
I0408 22:41:28.939535 15644 net.cpp:126] Top shape: 5 14 25 25 (43750)
I0408 22:41:28.939574 15644 layer_factory.hpp:74] Creating layer pred_heat_maps
I0408 22:41:28.939589 15644 net.cpp:89] 
I0408 22:41:28.939602 15644 net.cpp:90] Creating Layer pred_heat_maps
I0408 22:41:28.939607 15644 net.cpp:386] pred_heat_maps <- refined_heat_maps
I0408 22:41:28.939622 15644 net.cpp:386] pred_heat_maps <- data_data_0_split_2
I0408 22:41:28.939630 15644 net.cpp:344] pred_heat_maps -> pred_heat_maps
I0408 22:41:28.939640 15644 net.cpp:119] Setting up pred_heat_maps
I0408 22:41:28.939661 15644 net.cpp:126] Top shape: 5 14 100 100 (700000)
I0408 22:41:28.939669 15644 layer_factory.hpp:74] Creating layer pred_coords
I0408 22:41:28.939693 15644 net.cpp:89] 
I0408 22:41:28.939708 15644 net.cpp:90] Creating Layer pred_coords
I0408 22:41:28.939721 15644 net.cpp:386] pred_coords <- pred_heat_maps
I0408 22:41:28.939731 15644 net.cpp:344] pred_coords -> pred_coords
I0408 22:41:28.939750 15644 net.cpp:119] Setting up pred_coords
I0408 22:41:28.939762 15644 coords_from_heat_map_layer.cpp:82] heat_map_a: 1
I0408 22:41:28.939803 15644 coords_from_heat_map_layer.cpp:83] heat_map_b: 0
I0408 22:41:28.939811 15644 coords_from_heat_map_layer.cpp:84] topK: 40
I0408 22:41:28.939820 15644 net.cpp:126] Top shape: 5 28 1 1 (140)
I0408 22:41:28.939833 15644 layer_factory.hpp:74] Creating layer pred_coordsr
I0408 22:41:28.939844 15644 net.cpp:89] 
I0408 22:41:28.939857 15644 net.cpp:90] Creating Layer pred_coordsr
I0408 22:41:28.939862 15644 net.cpp:386] pred_coordsr <- pred_coords
I0408 22:41:28.939869 15644 net.cpp:386] pred_coordsr <- aux_info_input_1_split_1
I0408 22:41:28.939888 15644 net.cpp:344] pred_coordsr -> pred_coordsr
I0408 22:41:28.939924 15644 net.cpp:119] Setting up pred_coordsr
I0408 22:41:28.939940 15644 net.cpp:126] Top shape: 5 28 1 1 (140)
I0408 22:41:28.939954 15644 net.cpp:175] pred_coordsr does not need backward computation.
I0408 22:41:28.939967 15644 net.cpp:175] pred_coords does not need backward computation.
I0408 22:41:28.939972 15644 net.cpp:175] pred_heat_maps does not need backward computation.
I0408 22:41:28.939977 15644 net.cpp:175] refined_heat_maps does not need backward computation.
I0408 22:41:28.939982 15644 net.cpp:175] conv6_ref does not need backward computation.
…
