…
I0326 17:00:23.868136 18777 static_pose_v2.cpp:312] has_torso: 1
I0326 17:00:23.868141 18777 static_pose_v2.cpp:313] batch size: 1
I0326 17:00:23.868150 18777 static_pose_v2.cpp:321] Opening file /home/ddk/dongdk/dataset/demo/pose/mude.images1/tp.result/pt.bbox.txt
I0326 17:00:23.879186 18777 net.cpp:43] Initializing net from parameters: 
name: "HumanPoseEstimation"
input: "data"
input: "aux_info"
input: "gt_coords"
state {
  phase: TEST
}
input_shape {
  dim: 5
  dim: 3
  dim: 100
  dim: 100
}
input_shape {
  dim: 5
  dim: 5
  dim: 1
  dim: 1
}
input_shape {
  dim: 5
  dim: 38
  dim: 1
  dim: 1
}
layer {
  name: "tmasks"
  type: "CoordsToBboxesMasks"
  bottom: "gt_coords"
  bottom: "aux_info"
  top: "tmasks"
  coord_to_bbox_masks_param {
    top_id: 9
    bottom_id: 13
    value: 255
    top_id2: 9
    bottom_id2: 13
  }
}
layer {
  name: "data_b1"
  type: "Concat"
  bottom: "data"
  bottom: "tmasks"
  top: "data_b1"
  concat_param {
    concat_dim: 1
  }
}
layer {
  name: "data_b2"
  type: "Resize"
  bottom: "data_b1"
  top: "data_b2"
  resize_param {
    height_fac: 0.707
    width_fac: 0.707
  }
}
layer {
  name: "conv1_b1"
  type: "Convolution"
  bottom: "data_b1"
  top: "conv1_b1"
  param {
    lr_mult: 0
    decay_mult: 0
  }
  param {
    lr_mult: 0
    decay_mult: 0
  }
  convolution_param {
    num_output: 128
    pad: 2
    kernel_size: 5
    weight_filler {
      type: "gaussian"
      std: 0.01
    }
    bias_filler {
      type: "constant"
      value: 0
    }
  }
}
layer {
  name: "relu1_b1"
  type: "ReLU"
  bottom: "conv1_b1"
  top: "conv1_b1"
}
layer {
  name: "pool1_b1"
  type: "Pooling"
  bottom: "conv1_b1"
  top: "pool1_b1"
  pooling_param {
    pool: MAX
    kernel_size: 2
    stride: 2
  }
}
layer {
  name: "conv2_b1"
  type: "Convolution"
  bottom: "pool1_b1"
  top: "conv2_b1"
  param {
    lr_mult: 0
    decay_mult: 0
  }
  param {
    lr_mult: 0
    decay_mult: 0
  }
  convolution_param {
    num_output: 128
    pad: 2
    kernel_size: 5
    weight_filler {
      type: "gaussian"
      std: 0.01
    }
    bias_filler {
      type: "constant"
      value: 0
    }
  }
}
layer {
  name: "relu2_b1"
  type: "ReLU"
  bottom: "conv2_b1"
  top: "conv2_b1"
}
layer {
  name: "pool2_b1"
  type: "Pooling"
  bottom: "conv2_b1"
  top: "pool2_b1"
  pooling_param {
    pool: MAX
    kernel_size: 2
    stride: 2
  }
}
layer {
  name: "conv3_b1"
  type: "Convolution"
  bottom: "pool2_b1"
  top: "conv3_b1"
  param {
    lr_mult: 0
    decay_mult: 0
  }
  param {
    lr_mult: 0
    decay_mult: 0
  }
  convolution_param {
    num_output: 128
    pad: 2
    kernel_size: 5
    weight_filler {
      type: "gaussian"
      std: 0.01
    }
    bias_filler {
      type: "constant"
      value: 0
    }
  }
}
layer {
  name: "relu3_b1"
  type: "ReLU"
  bottom: "conv3_b1"
  top: "conv3_b1"
}
layer {
  name: "conv4_b1"
  type: "Convolution"
  bottom: "conv3_b1"
  top: "conv4_b1"
  param {
    lr_mult: 0
    decay_mult: 0
  }
  param {
    lr_mult: 0
    decay_mult: 0
  }
  convolution_param {
    num_output: 256
    pad: 4
    kernel_size: 9
    weight_filler {
      type: "gaussian"
      std: 0.01
    }
    bias_filler {
      type: "constant"
      value: 0
    }
  }
}
layer {
  name: "relu4_b1"
  type: "ReLU"
  bottom: "conv4_b1"
  top: "conv4_b1"
}
layer {
  name: "conv1_b2"
  type: "Convolution"
  bottom: "data_b2"
  top: "conv1_b2"
  param {
    lr_mult: 0
    decay_mult: 0
  }
  param {
    lr_mult: 0
    decay_mult: 0
  }
  convolution_param {
    num_output: 128
    pad: 2
    kernel_size: 5
    weight_filler {
      type: "gaussian"
      std: 0.01
    }
    bias_filler {
      type: "constant"
      value: 0
    }
  }
}
layer {
  name: "relu1_b2"
  type: "ReLU"
  bottom: "conv1_b2"
  top: "conv1_b2"
}
layer {
  name: "pool1_b2"
  type: "Pooling"
  bottom: "conv1_b2"
  top: "pool1_b2"
  pooling_param {
    pool: MAX
    kernel_size: 2
    stride: 2
  }
}
layer {
  name: "conv2_b2"
  type: "Convolution"
  bottom: "pool1_b2"
  top: "conv2_b2"
  param {
    lr_mult: 0
    decay_mult: 0
  }
  param {
    lr_mult: 0
    decay_mult: 0
  }
  convolution_param {
    num_output: 128
    pad: 2
    kernel_size: 5
    weight_filler {
      type: "gaussian"
      std: 0.01
    }
    bias_filler {
      type: "constant"
      value: 0
    }
  }
}
layer {
  name: "relu2_b2"
  type: "ReLU"
  bottom: "conv2_b2"
  top: "conv2_b2"
}
layer {
  name: "pool2_b2"
  type: "Pooling"
  bottom: "conv2_b2"
  top: "pool2_b2"
  pooling_param {
    pool: MAX
    kernel_size: 2
    stride: 2
  }
}
layer {
  name: "conv3_b2"
  type: "Convolution"
  bottom: "pool2_b2"
  top: "conv3_b2"
  param {
    lr_mult: 0
    decay_mult: 0
  }
  param {
    lr_mult: 0
    decay_mult: 0
  }
  convolution_param {
    num_output: 128
    pad: 2
    kernel_size: 5
    weight_filler {
      type: "gaussian"
      std: 0.01
    }
    bias_filler {
      type: "constant"
      value: 0
    }
  }
}
layer {
  name: "relu3_b2"
  type: "ReLU"
  bottom: "conv3_b2"
  top: "conv3_b2"
}
layer {
  name: "conv4_b2"
  type: "Convolution"
  bottom: "conv3_b2"
  top: "conv4_b2"
  param {
    lr_mult: 0
    decay_mult: 0
  }
  param {
    lr_mult: 0
    decay_mult: 0
  }
  convolution_param {
    num_output: 256
    pad: 4
    kernel_size: 9
    weight_filler {
      type: "gaussian"
      std: 0.01
    }
    bias_filler {
      type: "constant"
      value: 0
    }
  }
}
layer {
  name: "relu4_b2"
  type: "ReLU"
  bottom: "conv4_b2"
  top: "conv4_b2"
}
layer {
  name: "conv4_b2r"
  type: "Resize"
  bottom: "conv4_b2"
  bottom: "conv4_b1"
  top: "conv4_b2r"
}
layer {
  name: "merge_banks"
  type: "Eltwise"
  bottom: "conv4_b1"
  bottom: "conv4_b2r"
  top: "conv4"
  eltwise_param {
    operation: SUM
  }
}
layer {
  name: "spatial_drop"
  type: "SpatialDropout"
  bottom: "conv4"
  top: "conv4"
  spatial_dropout_param {
    dropout_ratio: 0.5
  }
}
layer {
  name: "conv5"
  type: "Convolution"
  bottom: "conv4"
  top: "conv5"
  param {
    lr_mult: 0
    decay_mult: 0
  }
  param {
    lr_mult: 0
    decay_mult: 0
  }
  convolution_param {
    num_output: 512
    pad: 4
    kernel_size: 9
    weight_filler {
      type: "gaussian"
      std: 0.01
    }
    bias_filler {
      type: "constant"
      value: 0
    }
  }
}
layer {
  name: "relu5"
  type: "ReLU"
  bottom: "conv5"
  top: "conv5"
}
layer {
  name: "conv6"
  type: "Convolution"
  bottom: "conv5"
  top: "conv6"
  param {
    lr_mult: 0
    decay_mult: 0
  }
  param {
    lr_mult: 0
    decay_mult: 0
  }
  convolution_param {
    num_output: 256
    kernel_size: 1
    weight_filler {
      type: "gaussian"
      std: 0.01
    }
    bias_filler {
      type: "constant"
      value: 0
    }
  }
}
layer {
  name: "relu6"
  type: "ReLU"
  bottom: "conv6"
  top: "conv6"
}
layer {
  name: "conv7"
  type: "Convolution"
  bottom: "conv6"
  top: "conv7"
  param {
    lr_mult: 0
    decay_mult: 0
  }
  param {
    lr_mult: 0
    decay_mult: 0
  }
  convolution_param {
    num_output: 256
    kernel_size: 1
    weight_filler {
      type: "gaussian"
      std: 0.01
    }
    bias_filler {
      type: "constant"
      value: 0
    }
  }
}
layer {
  name: "relu7"
  type: "ReLU"
  bottom: "conv7"
  top: "conv7"
}
layer {
  name: "conv8"
  type: "Convolution"
  bottom: "conv7"
  top: "conv8"
  param {
    lr_mult: 0
    decay_mult: 0
  }
  param {
    lr_mult: 0
    decay_mult: 0
  }
  convolution_param {
    num_output: 19
    kernel_size: 1
    weight_filler {
      type: "gaussian"
      std: 0.01
    }
    bias_filler {
      type: "constant"
      value: 0
    }
  }
}
layer {
  name: "conv3_b2r"
  type: "Resize"
  bottom: "conv3_b2"
  bottom: "conv3_b1"
  top: "conv3_b2r"
}
layer {
  name: "concat_f"
  type: "Concat"
  bottom: "conv3_b1"
  bottom: "conv3_b2r"
  bottom: "conv7"
  top: "concat_f"
  concat_param {
    concat_dim: 1
  }
}
layer {
  name: "conv1_f"
  type: "Convolution"
  bottom: "concat_f"
  top: "conv1_f"
  param {
    lr_mult: 0
    decay_mult: 0
  }
  param {
    lr_mult: 0
    decay_mult: 0
  }
  convolution_param {
    num_output: 64
    pad: 3
    kernel_size: 7
    weight_filler {
      type: "gaussian"
      std: 0.01
    }
    bias_filler {
      type: "constant"
    }
  }
}
layer {
  name: "relu1_f"
  type: "ReLU"
  bottom: "conv1_f"
  top: "conv1_f"
}
layer {
  name: "conv2_f"
  type: "Convolution"
  bottom: "conv1_f"
  top: "conv2_f"
  param {
    lr_mult: 0
    decay_mult: 0
  }
  param {
    lr_mult: 0
    decay_mult: 0
  }
  convolution_param {
    num_output: 64
    pad: 6
    kernel_size: 13
    weight_filler {
      type: "gaussian"
      std: 0.01
    }
    bias_filler {
      type: "constant"
    }
  }
}
layer {
  name: "relu2_f"
  type: "ReLU"
  bottom: "conv2_f"
  top: "conv2_f"
}
layer {
  name: "conv3_f"
  type: "Convolution"
  bottom: "conv2_f"
  top: "conv3_f"
  param {
    lr_mult: 0
    decay_mult: 0
  }
  param {
    lr_mult: 0
    decay_mult: 0
  }
  convolution_param {
    num_output: 64
    pad: 6
    kernel_size: 13
    weight_filler {
      type: "gaussian"
      std: 0.01
    }
    bias_filler {
      type: "constant"
    }
  }
}
layer {
  name: "relu3_f"
  type: "ReLU"
  bottom: "conv3_f"
  top: "conv3_f"
}
layer {
  name: "conv4_f"
  type: "Convolution"
  bottom: "conv3_f"
  top: "conv4_f"
  param {
    lr_mult: 0
    decay_mult: 0
  }
  param {
    lr_mult: 0
    decay_mult: 0
  }
  convolution_param {
    num_output: 256
    kernel_size: 1
    weight_filler {
      type: "gaussian"
      std: 0.01
    }
    bias_filler {
      type: "constant"
    }
  }
}
layer {
  name: "relu4_f"
  type: "ReLU"
  bottom: "conv4_f"
  top: "conv4_f"
}
layer {
  name: "conv5_f"
  type: "Convolution"
  bottom: "conv4_f"
  top: "conv5_f"
  param {
    lr_mult: 0
    decay_mult: 0
  }
  param {
    lr_mult: 0
    decay_mult: 0
  }
  convolution_param {
    num_output: 19
    kernel_size: 1
    weight_filler {
      type: "gaussian"
      std: 0.01
    }
    bias_filler {
      type: "constant"
    }
  }
}
layer {
  name: "conv1_ref"
  type: "Convolution"
  bottom: "concat_f"
  top: "conv1_ref"
  param {
    lr_mult: 0
    decay_mult: 0
  }
  param {
    lr_mult: 0
    decay_mult: 0
  }
  convolution_param {
    num_output: 1216
    kernel_size: 1
    weight_filler {
      type: "gaussian"
      std: 0.01
    }
    bias_filler {
      type: "constant"
    }
  }
}
layer {
  name: "relu1_ref"
  type: "ReLU"
  bottom: "conv1_ref"
  top: "conv1_ref"
}
layer {
  name: "conv2_ref"
  type: "Convolution"
  bottom: "conv1_ref"
  top: "conv2_ref"
  param {
    lr_mult: 0
    decay_mult: 0
  }
  param {
    lr_mult: 0
    decay_mult: 0
  }
  convolution_param {
    num_output: 1216
    pad: 3
    kernel_size: 7
    group: 19
    weight_filler {
      type: "gaussian"
      std: 0.01
    }
    bias_filler {
      type: "constant"
    }
  }
}
layer {
  name: "relu2_ref"
  type: "ReLU"
  bottom: "conv2_ref"
  top: "conv2_ref"
}
layer {
  name: "conv3_ref"
  type: "Convolution"
  bottom: "conv2_ref"
  top: "conv3_ref"
  param {
    lr_mult: 0
    decay_mult: 0
  }
  param {
    lr_mult: 0
    decay_mult: 0
  }
  convolution_param {
    num_output: 1216
    pad: 6
    kernel_size: 13
    group: 19
    weight_filler {
      type: "gaussian"
      std: 0.01
    }
    bias_filler {
      type: "constant"
    }
  }
}
layer {
  name: "relu3_ref"
  type: "ReLU"
  bottom: "conv3_ref"
  top: "conv3_ref"
}
layer {
  name: "conv4_ref"
  type: "Convolution"
  bottom: "conv3_ref"
  top: "conv4_ref"
  param {
    lr_mult: 0
    decay_mult: 0
  }
  param {
    lr_mult: 0
    decay_mult: 0
  }
  convolution_param {
    num_output: 1216
    pad: 6
    kernel_size: 13
    group: 19
    weight_filler {
      type: "gaussian"
      std: 0.01
    }
    bias_filler {
      type: "constant"
    }
  }
}
layer {
  name: "relu4_ref"
  type: "ReLU"
  bottom: "conv4_ref"
  top: "conv4_ref"
}
layer {
  name: "conv5_ref"
  type: "Convolution"
  bottom: "conv4_ref"
  top: "conv5_ref"
  param {
    lr_mult: 0
    decay_mult: 0
  }
  param {
    lr_mult: 0
    decay_mult: 0
  }
  convolution_param {
    num_output: 4864
    kernel_size: 1
    group: 19
    weight_filler {
      type: "gaussian"
      std: 0.01
    }
    bias_filler {
      type: "constant"
    }
  }
}
layer {
  name: "relu5_ref"
  type: "ReLU"
  bottom: "conv5_ref"
  top: "conv5_ref"
}
layer {
  name: "conv6_ref"
  type: "Convolution"
  bottom: "conv5_ref"
  top: "conv6_ref"
  param {
    lr_mult: 0
    decay_mult: 0
  }
  param {
    lr_mult: 0
    decay_mult: 0
  }
  convolution_param {
    num_output: 19
    kernel_size: 1
    group: 19
    weight_filler {
      type: "gaussian"
      std: 0.01
    }
    bias_filler {
      type: "constant"
    }
  }
}
layer {
  name: "refined_heat_maps"
  type: "Eltwise"
  bottom: "conv8"
  bottom: "conv5_f"
  bottom: "conv6_ref"
  top: "refined_heat_maps"
  include {
    phase: TEST
  }
  eltwise_param {
    operation: SUM
    coeff: 1
    coeff: 1
    coeff: 1
  }
}
layer {
  name: "pred_heat_maps"
  type: "Resize"
  bottom: "refined_heat_maps"
  bottom: "heat_maps"
  top: "pred_heat_maps"
  include {
    phase: TEST
  }
}
layer {
  name: "pred_coords"
  type: "CoordsFromHeatMaps"
  bottom: "pred_heat_maps"
  top: "pred_coords"
  include {
    phase: TEST
  }
  pose_coords_from_heat_maps_param {
    heat_map_a: 1
    heat_map_b: 0
    top_k: 30
  }
  is_disp_info: true
}
layer {
  name: "pred_coordsr"
  type: "RescaledPoseCoords"
  bottom: "pred_coords"
  bottom: "aux_info"
  top: "pred_coordsr"
  include {
    phase: TEST
  }
}
F0326 17:00:23.879416 18777 insert_splits.cpp:35] Unknown blob input heat_maps to layer 1
*** Check failure stack trace: ***
    @     0x7fa0b4f2cdaa  (unknown)
    @     0x7fa0b4f2cce4  (unknown)
    @     0x7fa0b4f2c6e6  (unknown)
    @     0x7fa0b4f2f687  (unknown)
    @     0x7fa0b55cd5fe  caffe::InsertSplits()
    @     0x7fa0b5631f65  caffe::Net<>::Init()
…
I0326 17:00:59.449679 19521 static_pose_v2.cpp:312] has_torso: 1
I0326 17:00:59.449684 19521 static_pose_v2.cpp:313] batch size: 1
I0326 17:00:59.449692 19521 static_pose_v2.cpp:321] Opening file /home/ddk/dongdk/dataset/demo/pose/mude.images1/tp.result/pt.bbox.txt
I0326 17:00:59.460527 19521 net.cpp:43] Initializing net from parameters: 
name: "HumanPoseEstimation"
input: "data"
input: "aux_info"
input: "gt_coords"
state {
  phase: TEST
}
input_shape {
  dim: 5
  dim: 3
  dim: 100
  dim: 100
}
input_shape {
  dim: 5
  dim: 5
  dim: 1
  dim: 1
}
input_shape {
  dim: 5
  dim: 38
  dim: 1
  dim: 1
}
layer {
  name: "tmasks"
  type: "CoordsToBboxesMasks"
  bottom: "gt_coords"
  bottom: "aux_info"
  top: "tmasks"
  coord_to_bbox_masks_param {
    top_id: 9
    bottom_id: 13
    value: 255
    top_id2: 9
    bottom_id2: 13
  }
}
layer {
  name: "data_b1"
  type: "Concat"
  bottom: "data"
  bottom: "tmasks"
  top: "data_b1"
  concat_param {
    concat_dim: 1
  }
}
layer {
  name: "data_b2"
  type: "Resize"
  bottom: "data_b1"
  top: "data_b2"
  resize_param {
    height_fac: 0.707
    width_fac: 0.707
  }
}
layer {
  name: "conv1_b1"
  type: "Convolution"
  bottom: "data_b1"
  top: "conv1_b1"
  param {
    lr_mult: 0
    decay_mult: 0
  }
  param {
    lr_mult: 0
    decay_mult: 0
  }
  convolution_param {
    num_output: 128
    pad: 2
    kernel_size: 5
    weight_filler {
      type: "gaussian"
      std: 0.01
    }
    bias_filler {
      type: "constant"
      value: 0
    }
  }
}
layer {
  name: "relu1_b1"
  type: "ReLU"
  bottom: "conv1_b1"
  top: "conv1_b1"
}
layer {
  name: "pool1_b1"
  type: "Pooling"
  bottom: "conv1_b1"
  top: "pool1_b1"
  pooling_param {
    pool: MAX
    kernel_size: 2
    stride: 2
  }
}
layer {
  name: "conv2_b1"
  type: "Convolution"
  bottom: "pool1_b1"
  top: "conv2_b1"
  param {
    lr_mult: 0
    decay_mult: 0
  }
  param {
    lr_mult: 0
    decay_mult: 0
  }
  convolution_param {
    num_output: 128
    pad: 2
    kernel_size: 5
    weight_filler {
      type: "gaussian"
      std: 0.01
    }
    bias_filler {
      type: "constant"
      value: 0
    }
  }
}
layer {
  name: "relu2_b1"
  type: "ReLU"
  bottom: "conv2_b1"
  top: "conv2_b1"
}
layer {
  name: "pool2_b1"
  type: "Pooling"
  bottom: "conv2_b1"
  top: "pool2_b1"
  pooling_param {
    pool: MAX
    kernel_size: 2
    stride: 2
  }
}
layer {
  name: "conv3_b1"
  type: "Convolution"
  bottom: "pool2_b1"
  top: "conv3_b1"
  param {
    lr_mult: 0
    decay_mult: 0
  }
  param {
    lr_mult: 0
    decay_mult: 0
  }
  convolution_param {
    num_output: 128
    pad: 2
    kernel_size: 5
    weight_filler {
      type: "gaussian"
      std: 0.01
    }
    bias_filler {
      type: "constant"
      value: 0
    }
  }
}
layer {
  name: "relu3_b1"
  type: "ReLU"
  bottom: "conv3_b1"
  top: "conv3_b1"
}
layer {
  name: "conv4_b1"
  type: "Convolution"
  bottom: "conv3_b1"
  top: "conv4_b1"
  param {
    lr_mult: 0
    decay_mult: 0
  }
  param {
    lr_mult: 0
    decay_mult: 0
  }
  convolution_param {
    num_output: 256
    pad: 4
    kernel_size: 9
    weight_filler {
      type: "gaussian"
      std: 0.01
    }
    bias_filler {
      type: "constant"
      value: 0
    }
  }
}
layer {
  name: "relu4_b1"
  type: "ReLU"
  bottom: "conv4_b1"
  top: "conv4_b1"
}
layer {
  name: "conv1_b2"
  type: "Convolution"
  bottom: "data_b2"
  top: "conv1_b2"
  param {
    lr_mult: 0
    decay_mult: 0
  }
  param {
    lr_mult: 0
    decay_mult: 0
  }
  convolution_param {
    num_output: 128
    pad: 2
    kernel_size: 5
    weight_filler {
      type: "gaussian"
      std: 0.01
    }
    bias_filler {
      type: "constant"
      value: 0
    }
  }
}
layer {
  name: "relu1_b2"
  type: "ReLU"
  bottom: "conv1_b2"
  top: "conv1_b2"
}
layer {
  name: "pool1_b2"
  type: "Pooling"
  bottom: "conv1_b2"
  top: "pool1_b2"
  pooling_param {
    pool: MAX
    kernel_size: 2
    stride: 2
  }
}
layer {
  name: "conv2_b2"
  type: "Convolution"
  bottom: "pool1_b2"
  top: "conv2_b2"
  param {
    lr_mult: 0
    decay_mult: 0
  }
  param {
    lr_mult: 0
    decay_mult: 0
  }
  convolution_param {
    num_output: 128
    pad: 2
    kernel_size: 5
    weight_filler {
      type: "gaussian"
      std: 0.01
    }
    bias_filler {
      type: "constant"
      value: 0
    }
  }
}
layer {
  name: "relu2_b2"
  type: "ReLU"
  bottom: "conv2_b2"
  top: "conv2_b2"
}
layer {
  name: "pool2_b2"
  type: "Pooling"
  bottom: "conv2_b2"
  top: "pool2_b2"
  pooling_param {
    pool: MAX
    kernel_size: 2
    stride: 2
  }
}
layer {
  name: "conv3_b2"
  type: "Convolution"
  bottom: "pool2_b2"
  top: "conv3_b2"
  param {
    lr_mult: 0
    decay_mult: 0
  }
  param {
    lr_mult: 0
    decay_mult: 0
  }
  convolution_param {
    num_output: 128
    pad: 2
    kernel_size: 5
    weight_filler {
      type: "gaussian"
      std: 0.01
    }
    bias_filler {
      type: "constant"
      value: 0
    }
  }
}
layer {
  name: "relu3_b2"
  type: "ReLU"
  bottom: "conv3_b2"
  top: "conv3_b2"
}
layer {
  name: "conv4_b2"
  type: "Convolution"
  bottom: "conv3_b2"
  top: "conv4_b2"
  param {
    lr_mult: 0
    decay_mult: 0
  }
  param {
    lr_mult: 0
    decay_mult: 0
  }
  convolution_param {
    num_output: 256
    pad: 4
    kernel_size: 9
    weight_filler {
      type: "gaussian"
      std: 0.01
    }
    bias_filler {
      type: "constant"
      value: 0
    }
  }
}
layer {
  name: "relu4_b2"
  type: "ReLU"
  bottom: "conv4_b2"
  top: "conv4_b2"
}
layer {
  name: "conv4_b2r"
  type: "Resize"
  bottom: "conv4_b2"
  bottom: "conv4_b1"
  top: "conv4_b2r"
}
layer {
  name: "merge_banks"
  type: "Eltwise"
  bottom: "conv4_b1"
  bottom: "conv4_b2r"
  top: "conv4"
  eltwise_param {
    operation: SUM
  }
}
layer {
  name: "spatial_drop"
  type: "SpatialDropout"
  bottom: "conv4"
  top: "conv4"
  spatial_dropout_param {
    dropout_ratio: 0.5
  }
}
layer {
  name: "conv5"
  type: "Convolution"
  bottom: "conv4"
  top: "conv5"
  param {
    lr_mult: 0
    decay_mult: 0
  }
  param {
    lr_mult: 0
    decay_mult: 0
  }
  convolution_param {
    num_output: 512
    pad: 4
    kernel_size: 9
    weight_filler {
      type: "gaussian"
      std: 0.01
    }
    bias_filler {
      type: "constant"
      value: 0
    }
  }
}
layer {
  name: "relu5"
  type: "ReLU"
  bottom: "conv5"
  top: "conv5"
}
layer {
  name: "conv6"
  type: "Convolution"
  bottom: "conv5"
  top: "conv6"
  param {
    lr_mult: 0
    decay_mult: 0
  }
  param {
    lr_mult: 0
    decay_mult: 0
  }
  convolution_param {
    num_output: 256
    kernel_size: 1
    weight_filler {
      type: "gaussian"
      std: 0.01
    }
    bias_filler {
      type: "constant"
      value: 0
    }
  }
}
layer {
  name: "relu6"
  type: "ReLU"
  bottom: "conv6"
  top: "conv6"
}
layer {
  name: "conv7"
  type: "Convolution"
  bottom: "conv6"
  top: "conv7"
  param {
    lr_mult: 0
    decay_mult: 0
  }
  param {
    lr_mult: 0
    decay_mult: 0
  }
  convolution_param {
    num_output: 256
    kernel_size: 1
    weight_filler {
      type: "gaussian"
      std: 0.01
    }
    bias_filler {
      type: "constant"
      value: 0
    }
  }
}
layer {
  name: "relu7"
  type: "ReLU"
  bottom: "conv7"
  top: "conv7"
}
layer {
  name: "conv8"
  type: "Convolution"
  bottom: "conv7"
  top: "conv8"
  param {
    lr_mult: 0
    decay_mult: 0
  }
  param {
    lr_mult: 0
    decay_mult: 0
  }
  convolution_param {
    num_output: 19
    kernel_size: 1
    weight_filler {
      type: "gaussian"
      std: 0.01
    }
    bias_filler {
      type: "constant"
      value: 0
    }
  }
}
layer {
  name: "conv3_b2r"
  type: "Resize"
  bottom: "conv3_b2"
  bottom: "conv3_b1"
  top: "conv3_b2r"
}
layer {
  name: "concat_f"
  type: "Concat"
  bottom: "conv3_b1"
  bottom: "conv3_b2r"
  bottom: "conv7"
  top: "concat_f"
  concat_param {
    concat_dim: 1
  }
}
layer {
  name: "conv1_f"
  type: "Convolution"
  bottom: "concat_f"
  top: "conv1_f"
  param {
    lr_mult: 0
    decay_mult: 0
  }
  param {
    lr_mult: 0
    decay_mult: 0
  }
  convolution_param {
    num_output: 64
    pad: 3
    kernel_size: 7
    weight_filler {
      type: "gaussian"
      std: 0.01
    }
    bias_filler {
      type: "constant"
    }
  }
}
layer {
  name: "relu1_f"
  type: "ReLU"
  bottom: "conv1_f"
  top: "conv1_f"
}
layer {
  name: "conv2_f"
  type: "Convolution"
  bottom: "conv1_f"
  top: "conv2_f"
  param {
    lr_mult: 0
    decay_mult: 0
  }
  param {
    lr_mult: 0
    decay_mult: 0
  }
  convolution_param {
    num_output: 64
    pad: 6
    kernel_size: 13
    weight_filler {
      type: "gaussian"
      std: 0.01
    }
    bias_filler {
      type: "constant"
    }
  }
}
layer {
  name: "relu2_f"
  type: "ReLU"
  bottom: "conv2_f"
  top: "conv2_f"
}
layer {
  name: "conv3_f"
  type: "Convolution"
  bottom: "conv2_f"
  top: "conv3_f"
  param {
    lr_mult: 0
    decay_mult: 0
  }
  param {
    lr_mult: 0
    decay_mult: 0
  }
  convolution_param {
    num_output: 64
    pad: 6
    kernel_size: 13
    weight_filler {
      type: "gaussian"
      std: 0.01
    }
    bias_filler {
      type: "constant"
    }
  }
}
layer {
  name: "relu3_f"
  type: "ReLU"
  bottom: "conv3_f"
  top: "conv3_f"
}
layer {
  name: "conv4_f"
  type: "Convolution"
  bottom: "conv3_f"
  top: "conv4_f"
  param {
    lr_mult: 0
    decay_mult: 0
  }
  param {
    lr_mult: 0
    decay_mult: 0
  }
  convolution_param {
    num_output: 256
    kernel_size: 1
    weight_filler {
      type: "gaussian"
      std: 0.01
    }
    bias_filler {
      type: "constant"
    }
  }
}
layer {
  name: "relu4_f"
  type: "ReLU"
  bottom: "conv4_f"
  top: "conv4_f"
}
layer {
  name: "conv5_f"
  type: "Convolution"
  bottom: "conv4_f"
  top: "conv5_f"
  param {
    lr_mult: 0
    decay_mult: 0
  }
  param {
    lr_mult: 0
    decay_mult: 0
  }
  convolution_param {
    num_output: 19
    kernel_size: 1
    weight_filler {
      type: "gaussian"
      std: 0.01
    }
    bias_filler {
      type: "constant"
    }
  }
}
layer {
  name: "conv1_ref"
  type: "Convolution"
  bottom: "concat_f"
  top: "conv1_ref"
  param {
    lr_mult: 0
    decay_mult: 0
  }
  param {
    lr_mult: 0
    decay_mult: 0
  }
  convolution_param {
    num_output: 1216
    kernel_size: 1
    weight_filler {
      type: "gaussian"
      std: 0.01
    }
    bias_filler {
      type: "constant"
    }
  }
}
layer {
  name: "relu1_ref"
  type: "ReLU"
  bottom: "conv1_ref"
  top: "conv1_ref"
}
layer {
  name: "conv2_ref"
  type: "Convolution"
  bottom: "conv1_ref"
  top: "conv2_ref"
  param {
    lr_mult: 0
    decay_mult: 0
  }
  param {
    lr_mult: 0
    decay_mult: 0
  }
  convolution_param {
    num_output: 1216
    pad: 3
    kernel_size: 7
    group: 19
    weight_filler {
      type: "gaussian"
      std: 0.01
    }
    bias_filler {
      type: "constant"
    }
  }
}
layer {
  name: "relu2_ref"
  type: "ReLU"
  bottom: "conv2_ref"
  top: "conv2_ref"
}
layer {
  name: "conv3_ref"
  type: "Convolution"
  bottom: "conv2_ref"
  top: "conv3_ref"
  param {
    lr_mult: 0
    decay_mult: 0
  }
  param {
    lr_mult: 0
    decay_mult: 0
  }
  convolution_param {
    num_output: 1216
    pad: 6
    kernel_size: 13
    group: 19
    weight_filler {
      type: "gaussian"
      std: 0.01
    }
    bias_filler {
      type: "constant"
    }
  }
}
layer {
  name: "relu3_ref"
  type: "ReLU"
  bottom: "conv3_ref"
  top: "conv3_ref"
}
layer {
  name: "conv4_ref"
  type: "Convolution"
  bottom: "conv3_ref"
  top: "conv4_ref"
  param {
    lr_mult: 0
    decay_mult: 0
  }
  param {
    lr_mult: 0
    decay_mult: 0
  }
  convolution_param {
    num_output: 1216
    pad: 6
    kernel_size: 13
    group: 19
    weight_filler {
      type: "gaussian"
      std: 0.01
    }
    bias_filler {
      type: "constant"
    }
  }
}
layer {
  name: "relu4_ref"
  type: "ReLU"
  bottom: "conv4_ref"
  top: "conv4_ref"
}
layer {
  name: "conv5_ref"
  type: "Convolution"
  bottom: "conv4_ref"
  top: "conv5_ref"
  param {
    lr_mult: 0
    decay_mult: 0
  }
  param {
    lr_mult: 0
    decay_mult: 0
  }
  convolution_param {
    num_output: 4864
    kernel_size: 1
    group: 19
    weight_filler {
      type: "gaussian"
      std: 0.01
    }
    bias_filler {
      type: "constant"
    }
  }
}
layer {
  name: "relu5_ref"
  type: "ReLU"
  bottom: "conv5_ref"
  top: "conv5_ref"
}
layer {
  name: "conv6_ref"
  type: "Convolution"
  bottom: "conv5_ref"
  top: "conv6_ref"
  param {
    lr_mult: 0
    decay_mult: 0
  }
  param {
    lr_mult: 0
    decay_mult: 0
  }
  convolution_param {
    num_output: 19
    kernel_size: 1
    group: 19
    weight_filler {
      type: "gaussian"
      std: 0.01
    }
    bias_filler {
      type: "constant"
    }
  }
}
layer {
  name: "refined_heat_maps"
  type: "Eltwise"
  bottom: "conv8"
  bottom: "conv5_f"
  bottom: "conv6_ref"
  top: "refined_heat_maps"
  include {
    phase: TEST
  }
  eltwise_param {
    operation: SUM
    coeff: 1
    coeff: 1
    coeff: 1
  }
}
layer {
  name: "pred_heat_maps"
  type: "Resize"
  bottom: "refined_heat_maps"
  bottom: "data_b1"
  top: "pred_heat_maps"
  include {
    phase: TEST
  }
}
layer {
  name: "pred_coords"
  type: "CoordsFromHeatMaps"
  bottom: "pred_heat_maps"
  top: "pred_coords"
  include {
    phase: TEST
  }
  pose_coords_from_heat_maps_param {
    heat_map_a: 1
    heat_map_b: 0
    top_k: 30
  }
  is_disp_info: true
}
layer {
  name: "pred_coordsr"
  type: "RescaledPoseCoords"
  bottom: "pred_coords"
  bottom: "aux_info"
  top: "pred_coordsr"
  include {
    phase: TEST
  }
}
I0326 17:00:59.460914 19521 net.cpp:346] Input 0 -> data
I0326 17:00:59.476903 19521 net.cpp:346] Input 1 -> aux_info
I0326 17:00:59.476958 19521 net.cpp:346] Input 2 -> gt_coords
I0326 17:00:59.476990 19521 layer_factory.hpp:74] Creating layer aux_info_input_1_split
I0326 17:00:59.477903 19521 net.cpp:89] 
I0326 17:00:59.477943 19521 net.cpp:90] Creating Layer aux_info_input_1_split
I0326 17:00:59.477965 19521 net.cpp:386] aux_info_input_1_split <- aux_info
I0326 17:00:59.478013 19521 net.cpp:344] aux_info_input_1_split -> aux_info_input_1_split_0
I0326 17:00:59.478049 19521 net.cpp:344] aux_info_input_1_split -> aux_info_input_1_split_1
I0326 17:00:59.478077 19521 net.cpp:119] Setting up aux_info_input_1_split
I0326 17:00:59.478117 19521 net.cpp:126] Top shape: 5 5 1 1 (25)
I0326 17:00:59.478142 19521 net.cpp:126] Top shape: 5 5 1 1 (25)
I0326 17:00:59.478163 19521 layer_factory.hpp:74] Creating layer tmasks
I0326 17:00:59.481658 19521 net.cpp:89] 
I0326 17:00:59.481693 19521 net.cpp:90] Creating Layer tmasks
I0326 17:00:59.481701 19521 net.cpp:386] tmasks <- gt_coords
I0326 17:00:59.481714 19521 net.cpp:386] tmasks <- aux_info_input_1_split_0
I0326 17:00:59.481722 19521 net.cpp:344] tmasks -> tmasks
I0326 17:00:59.481739 19521 net.cpp:119] Setting up tmasks
I0326 17:00:59.482125 19521 net.cpp:126] Top shape: 5 1 100 100 (50000)
I0326 17:00:59.482137 19521 layer_factory.hpp:74] Creating layer data_b1
I0326 17:00:59.482151 19521 net.cpp:89] 
I0326 17:00:59.482157 19521 net.cpp:90] Creating Layer data_b1
I0326 17:00:59.482163 19521 net.cpp:386] data_b1 <- data
I0326 17:00:59.482170 19521 net.cpp:386] data_b1 <- tmasks
I0326 17:00:59.482178 19521 net.cpp:344] data_b1 -> data_b1
I0326 17:00:59.482189 19521 net.cpp:119] Setting up data_b1
I0326 17:00:59.482239 19521 net.cpp:126] Top shape: 5 4 100 100 (200000)
I0326 17:00:59.482265 19521 layer_factory.hpp:74] Creating layer data_b1_data_b1_0_split
I0326 17:00:59.482291 19521 net.cpp:89] 
I0326 17:00:59.482313 19521 net.cpp:90] Creating Layer data_b1_data_b1_0_split
I0326 17:00:59.482336 19521 net.cpp:386] data_b1_data_b1_0_split <- data_b1
I0326 17:00:59.482364 19521 net.cpp:344] data_b1_data_b1_0_split -> data_b1_data_b1_0_split_0
I0326 17:00:59.482393 19521 net.cpp:344] data_b1_data_b1_0_split -> data_b1_data_b1_0_split_1
I0326 17:00:59.482422 19521 net.cpp:344] data_b1_data_b1_0_split -> data_b1_data_b1_0_split_2
I0326 17:00:59.482450 19521 net.cpp:119] Setting up data_b1_data_b1_0_split
I0326 17:00:59.482480 19521 net.cpp:126] Top shape: 5 4 100 100 (200000)
I0326 17:00:59.482504 19521 net.cpp:126] Top shape: 5 4 100 100 (200000)
I0326 17:00:59.482528 19521 net.cpp:126] Top shape: 5 4 100 100 (200000)
I0326 17:00:59.482552 19521 layer_factory.hpp:74] Creating layer data_b2
I0326 17:00:59.482581 19521 net.cpp:89] 
I0326 17:00:59.482592 19521 net.cpp:90] Creating Layer data_b2
I0326 17:00:59.482599 19521 net.cpp:386] data_b2 <- data_b1_data_b1_0_split_0
I0326 17:00:59.482607 19521 net.cpp:344] data_b2 -> data_b2
I0326 17:00:59.482637 19521 net.cpp:119] Setting up data_b2
I0326 17:00:59.482656 19521 net.cpp:126] Top shape: 5 4 70 70 (98000)
I0326 17:00:59.482679 19521 layer_factory.hpp:74] Creating layer conv1_b1
I0326 17:00:59.482712 19521 net.cpp:89] 
I0326 17:00:59.482720 19521 net.cpp:90] Creating Layer conv1_b1
I0326 17:00:59.482727 19521 net.cpp:386] conv1_b1 <- data_b1_data_b1_0_split_1
I0326 17:00:59.482736 19521 net.cpp:344] conv1_b1 -> conv1_b1
I0326 17:00:59.482767 19521 net.cpp:119] Setting up conv1_b1
I0326 17:01:00.100957 19521 net.cpp:126] Top shape: 5 128 100 100 (6400000)
I0326 17:01:00.101094 19521 layer_factory.hpp:74] Creating layer relu1_b1
I0326 17:01:00.101135 19521 net.cpp:89] 
I0326 17:01:00.101140 19521 net.cpp:90] Creating Layer relu1_b1
I0326 17:01:00.101153 19521 net.cpp:386] relu1_b1 <- conv1_b1
I0326 17:01:00.101177 19521 net.cpp:333] relu1_b1 -> conv1_b1 (in-place)
I0326 17:01:00.101214 19521 net.cpp:119] Setting up relu1_b1
I0326 17:01:00.124918 19521 net.cpp:126] Top shape: 5 128 100 100 (6400000)
I0326 17:01:00.124951 19521 layer_factory.hpp:74] Creating layer pool1_b1
I0326 17:01:00.124972 19521 net.cpp:89] 
I0326 17:01:00.124979 19521 net.cpp:90] Creating Layer pool1_b1
I0326 17:01:00.124986 19521 net.cpp:386] pool1_b1 <- conv1_b1
I0326 17:01:00.124999 19521 net.cpp:344] pool1_b1 -> pool1_b1
I0326 17:01:00.125037 19521 net.cpp:119] Setting up pool1_b1
I0326 17:01:00.142318 19521 net.cpp:126] Top shape: 5 128 50 50 (1600000)
I0326 17:01:00.142354 19521 layer_factory.hpp:74] Creating layer conv2_b1
I0326 17:01:00.142416 19521 net.cpp:89] 
I0326 17:01:00.142449 19521 net.cpp:90] Creating Layer conv2_b1
I0326 17:01:00.142475 19521 net.cpp:386] conv2_b1 <- pool1_b1
I0326 17:01:00.142508 19521 net.cpp:344] conv2_b1 -> conv2_b1
I0326 17:01:00.142557 19521 net.cpp:119] Setting up conv2_b1
I0326 17:01:00.155966 19521 net.cpp:126] Top shape: 5 128 50 50 (1600000)
I0326 17:01:00.156026 19521 layer_factory.hpp:74] Creating layer relu2_b1
I0326 17:01:00.156044 19521 net.cpp:89] 
I0326 17:01:00.156050 19521 net.cpp:90] Creating Layer relu2_b1
I0326 17:01:00.156059 19521 net.cpp:386] relu2_b1 <- conv2_b1
I0326 17:01:00.156071 19521 net.cpp:333] relu2_b1 -> conv2_b1 (in-place)
I0326 17:01:00.156085 19521 net.cpp:119] Setting up relu2_b1
I0326 17:01:00.156155 19521 net.cpp:126] Top shape: 5 128 50 50 (1600000)
I0326 17:01:00.156195 19521 layer_factory.hpp:74] Creating layer pool2_b1
I0326 17:01:00.156229 19521 net.cpp:89] 
I0326 17:01:00.156254 19521 net.cpp:90] Creating Layer pool2_b1
I0326 17:01:00.156275 19521 net.cpp:386] pool2_b1 <- conv2_b1
I0326 17:01:00.156303 19521 net.cpp:344] pool2_b1 -> pool2_b1
I0326 17:01:00.156338 19521 net.cpp:119] Setting up pool2_b1
I0326 17:01:00.156610 19521 net.cpp:126] Top shape: 5 128 25 25 (400000)
I0326 17:01:00.156657 19521 layer_factory.hpp:74] Creating layer conv3_b1
I0326 17:01:00.156689 19521 net.cpp:89] 
I0326 17:01:00.156714 19521 net.cpp:90] Creating Layer conv3_b1
I0326 17:01:00.156736 19521 net.cpp:386] conv3_b1 <- pool2_b1
I0326 17:01:00.156767 19521 net.cpp:344] conv3_b1 -> conv3_b1
I0326 17:01:00.156797 19521 net.cpp:119] Setting up conv3_b1
I0326 17:01:00.170578 19521 net.cpp:126] Top shape: 5 128 25 25 (400000)
I0326 17:01:00.170626 19521 layer_factory.hpp:74] Creating layer relu3_b1
I0326 17:01:00.170644 19521 net.cpp:89] 
I0326 17:01:00.170650 19521 net.cpp:90] Creating Layer relu3_b1
I0326 17:01:00.170657 19521 net.cpp:386] relu3_b1 <- conv3_b1
I0326 17:01:00.170668 19521 net.cpp:333] relu3_b1 -> conv3_b1 (in-place)
I0326 17:01:00.170709 19521 net.cpp:119] Setting up relu3_b1
I0326 17:01:00.170788 19521 net.cpp:126] Top shape: 5 128 25 25 (400000)
I0326 17:01:00.170797 19521 layer_factory.hpp:74] Creating layer conv3_b1_relu3_b1_0_split
I0326 17:01:00.170807 19521 net.cpp:89] 
I0326 17:01:00.170814 19521 net.cpp:90] Creating Layer conv3_b1_relu3_b1_0_split
I0326 17:01:00.170819 19521 net.cpp:386] conv3_b1_relu3_b1_0_split <- conv3_b1
I0326 17:01:00.170852 19521 net.cpp:344] conv3_b1_relu3_b1_0_split -> conv3_b1_relu3_b1_0_split_0
I0326 17:01:00.170888 19521 net.cpp:344] conv3_b1_relu3_b1_0_split -> conv3_b1_relu3_b1_0_split_1
I0326 17:01:00.170902 19521 net.cpp:344] conv3_b1_relu3_b1_0_split -> conv3_b1_relu3_b1_0_split_2
I0326 17:01:00.170929 19521 net.cpp:119] Setting up conv3_b1_relu3_b1_0_split
I0326 17:01:00.170943 19521 net.cpp:126] Top shape: 5 128 25 25 (400000)
I0326 17:01:00.170953 19521 net.cpp:126] Top shape: 5 128 25 25 (400000)
I0326 17:01:00.170979 19521 net.cpp:126] Top shape: 5 128 25 25 (400000)
I0326 17:01:00.171002 19521 layer_factory.hpp:74] Creating layer conv4_b1
I0326 17:01:00.171035 19521 net.cpp:89] 
I0326 17:01:00.171043 19521 net.cpp:90] Creating Layer conv4_b1
I0326 17:01:00.171049 19521 net.cpp:386] conv4_b1 <- conv3_b1_relu3_b1_0_split_0
I0326 17:01:00.171061 19521 net.cpp:344] conv4_b1 -> conv4_b1
I0326 17:01:00.171090 19521 net.cpp:119] Setting up conv4_b1
I0326 17:01:00.260730 19521 net.cpp:126] Top shape: 5 256 25 25 (800000)
I0326 17:01:00.260778 19521 layer_factory.hpp:74] Creating layer relu4_b1
I0326 17:01:00.260797 19521 net.cpp:89] 
I0326 17:01:00.260802 19521 net.cpp:90] Creating Layer relu4_b1
I0326 17:01:00.260810 19521 net.cpp:386] relu4_b1 <- conv4_b1
I0326 17:01:00.260821 19521 net.cpp:333] relu4_b1 -> conv4_b1 (in-place)
I0326 17:01:00.260835 19521 net.cpp:119] Setting up relu4_b1
I0326 17:01:00.260905 19521 net.cpp:126] Top shape: 5 256 25 25 (800000)
I0326 17:01:00.260941 19521 layer_factory.hpp:74] Creating layer conv4_b1_relu4_b1_0_split
I0326 17:01:00.260980 19521 net.cpp:89] 
I0326 17:01:00.261006 19521 net.cpp:90] Creating Layer conv4_b1_relu4_b1_0_split
I0326 17:01:00.261042 19521 net.cpp:386] conv4_b1_relu4_b1_0_split <- conv4_b1
I0326 17:01:00.261070 19521 net.cpp:344] conv4_b1_relu4_b1_0_split -> conv4_b1_relu4_b1_0_split_0
I0326 17:01:00.261099 19521 net.cpp:344] conv4_b1_relu4_b1_0_split -> conv4_b1_relu4_b1_0_split_1
I0326 17:01:00.261131 19521 net.cpp:119] Setting up conv4_b1_relu4_b1_0_split
I0326 17:01:00.261160 19521 net.cpp:126] Top shape: 5 256 25 25 (800000)
I0326 17:01:00.261186 19521 net.cpp:126] Top shape: 5 256 25 25 (800000)
I0326 17:01:00.261210 19521 layer_factory.hpp:74] Creating layer conv1_b2
I0326 17:01:00.261240 19521 net.cpp:89] 
I0326 17:01:00.261262 19521 net.cpp:90] Creating Layer conv1_b2
I0326 17:01:00.261284 19521 net.cpp:386] conv1_b2 <- data_b2
I0326 17:01:00.261317 19521 net.cpp:344] conv1_b2 -> conv1_b2
I0326 17:01:00.261346 19521 net.cpp:119] Setting up conv1_b2
I0326 17:01:00.262110 19521 net.cpp:126] Top shape: 5 128 70 70 (3136000)
I0326 17:01:00.262138 19521 layer_factory.hpp:74] Creating layer relu1_b2
I0326 17:01:00.262148 19521 net.cpp:89] 
I0326 17:01:00.262154 19521 net.cpp:90] Creating Layer relu1_b2
I0326 17:01:00.262161 19521 net.cpp:386] relu1_b2 <- conv1_b2
I0326 17:01:00.262172 19521 net.cpp:333] relu1_b2 -> conv1_b2 (in-place)
I0326 17:01:00.262181 19521 net.cpp:119] Setting up relu1_b2
I0326 17:01:00.262245 19521 net.cpp:126] Top shape: 5 128 70 70 (3136000)
I0326 17:01:00.262255 19521 layer_factory.hpp:74] Creating layer pool1_b2
I0326 17:01:00.262269 19521 net.cpp:89] 
I0326 17:01:00.262274 19521 net.cpp:90] Creating Layer pool1_b2
I0326 17:01:00.262280 19521 net.cpp:386] pool1_b2 <- conv1_b2
I0326 17:01:00.262289 19521 net.cpp:344] pool1_b2 -> pool1_b2
I0326 17:01:00.262321 19521 net.cpp:119] Setting up pool1_b2
I0326 17:01:00.262516 19521 net.cpp:126] Top shape: 5 128 35 35 (784000)
I0326 17:01:00.262528 19521 layer_factory.hpp:74] Creating layer conv2_b2
I0326 17:01:00.262547 19521 net.cpp:89] 
I0326 17:01:00.262552 19521 net.cpp:90] Creating Layer conv2_b2
I0326 17:01:00.262558 19521 net.cpp:386] conv2_b2 <- pool1_b2
I0326 17:01:00.262567 19521 net.cpp:344] conv2_b2 -> conv2_b2
I0326 17:01:00.262578 19521 net.cpp:119] Setting up conv2_b2
I0326 17:01:00.275904 19521 net.cpp:126] Top shape: 5 128 35 35 (784000)
I0326 17:01:00.275954 19521 layer_factory.hpp:74] Creating layer relu2_b2
I0326 17:01:00.275974 19521 net.cpp:89] 
I0326 17:01:00.275979 19521 net.cpp:90] Creating Layer relu2_b2
I0326 17:01:00.275987 19521 net.cpp:386] relu2_b2 <- conv2_b2
I0326 17:01:00.276001 19521 net.cpp:333] relu2_b2 -> conv2_b2 (in-place)
I0326 17:01:00.276022 19521 net.cpp:119] Setting up relu2_b2
I0326 17:01:00.276139 19521 net.cpp:126] Top shape: 5 128 35 35 (784000)
I0326 17:01:00.276151 19521 layer_factory.hpp:74] Creating layer pool2_b2
I0326 17:01:00.276172 19521 net.cpp:89] 
I0326 17:01:00.276177 19521 net.cpp:90] Creating Layer pool2_b2
I0326 17:01:00.276183 19521 net.cpp:386] pool2_b2 <- conv2_b2
I0326 17:01:00.276192 19521 net.cpp:344] pool2_b2 -> pool2_b2
I0326 17:01:00.276211 19521 net.cpp:119] Setting up pool2_b2
I0326 17:01:00.276301 19521 net.cpp:126] Top shape: 5 128 18 18 (207360)
I0326 17:01:00.276312 19521 layer_factory.hpp:74] Creating layer conv3_b2
I0326 17:01:00.276335 19521 net.cpp:89] 
I0326 17:01:00.276341 19521 net.cpp:90] Creating Layer conv3_b2
I0326 17:01:00.276355 19521 net.cpp:386] conv3_b2 <- pool2_b2
I0326 17:01:00.276366 19521 net.cpp:344] conv3_b2 -> conv3_b2
I0326 17:01:00.276384 19521 net.cpp:119] Setting up conv3_b2
I0326 17:01:00.290037 19521 net.cpp:126] Top shape: 5 128 18 18 (207360)
I0326 17:01:00.290077 19521 layer_factory.hpp:74] Creating layer relu3_b2
I0326 17:01:00.290094 19521 net.cpp:89] 
I0326 17:01:00.290101 19521 net.cpp:90] Creating Layer relu3_b2
I0326 17:01:00.290108 19521 net.cpp:386] relu3_b2 <- conv3_b2
I0326 17:01:00.290127 19521 net.cpp:333] relu3_b2 -> conv3_b2 (in-place)
I0326 17:01:00.290174 19521 net.cpp:119] Setting up relu3_b2
I0326 17:01:00.290262 19521 net.cpp:126] Top shape: 5 128 18 18 (207360)
I0326 17:01:00.290272 19521 layer_factory.hpp:74] Creating layer conv3_b2_relu3_b2_0_split
I0326 17:01:00.290314 19521 net.cpp:89] 
I0326 17:01:00.290320 19521 net.cpp:90] Creating Layer conv3_b2_relu3_b2_0_split
I0326 17:01:00.290326 19521 net.cpp:386] conv3_b2_relu3_b2_0_split <- conv3_b2
I0326 17:01:00.290343 19521 net.cpp:344] conv3_b2_relu3_b2_0_split -> conv3_b2_relu3_b2_0_split_0
I0326 17:01:00.290380 19521 net.cpp:344] conv3_b2_relu3_b2_0_split -> conv3_b2_relu3_b2_0_split_1
I0326 17:01:00.290392 19521 net.cpp:119] Setting up conv3_b2_relu3_b2_0_split
I0326 17:01:00.290410 19521 net.cpp:126] Top shape: 5 128 18 18 (207360)
I0326 17:01:00.290418 19521 net.cpp:126] Top shape: 5 128 18 18 (207360)
I0326 17:01:00.290424 19521 layer_factory.hpp:74] Creating layer conv4_b2
I0326 17:01:00.290438 19521 net.cpp:89] 
I0326 17:01:00.290446 19521 net.cpp:90] Creating Layer conv4_b2
I0326 17:01:00.290452 19521 net.cpp:386] conv4_b2 <- conv3_b2_relu3_b2_0_split_0
I0326 17:01:00.290462 19521 net.cpp:344] conv4_b2 -> conv4_b2
I0326 17:01:00.290473 19521 net.cpp:119] Setting up conv4_b2
I0326 17:01:00.373440 19521 net.cpp:126] Top shape: 5 256 18 18 (414720)
I0326 17:01:00.373476 19521 layer_factory.hpp:74] Creating layer relu4_b2
I0326 17:01:00.373489 19521 net.cpp:89] 
I0326 17:01:00.373497 19521 net.cpp:90] Creating Layer relu4_b2
I0326 17:01:00.373503 19521 net.cpp:386] relu4_b2 <- conv4_b2
I0326 17:01:00.373515 19521 net.cpp:333] relu4_b2 -> conv4_b2 (in-place)
I0326 17:01:00.373528 19521 net.cpp:119] Setting up relu4_b2
I0326 17:01:00.373710 19521 net.cpp:126] Top shape: 5 256 18 18 (414720)
I0326 17:01:00.373723 19521 layer_factory.hpp:74] Creating layer conv4_b2r
I0326 17:01:00.373733 19521 net.cpp:89] 
I0326 17:01:00.373739 19521 net.cpp:90] Creating Layer conv4_b2r
I0326 17:01:00.373744 19521 net.cpp:386] conv4_b2r <- conv4_b2
I0326 17:01:00.373751 19521 net.cpp:386] conv4_b2r <- conv4_b1_relu4_b1_0_split_0
I0326 17:01:00.373761 19521 net.cpp:344] conv4_b2r -> conv4_b2r
I0326 17:01:00.373771 19521 net.cpp:119] Setting up conv4_b2r
I0326 17:01:00.373791 19521 net.cpp:126] Top shape: 5 256 25 25 (800000)
I0326 17:01:00.373823 19521 layer_factory.hpp:74] Creating layer merge_banks
I0326 17:01:00.387192 19521 net.cpp:89] 
I0326 17:01:00.387217 19521 net.cpp:90] Creating Layer merge_banks
I0326 17:01:00.387225 19521 net.cpp:386] merge_banks <- conv4_b1_relu4_b1_0_split_1
I0326 17:01:00.387235 19521 net.cpp:386] merge_banks <- conv4_b2r
I0326 17:01:00.387244 19521 net.cpp:344] merge_banks -> conv4
I0326 17:01:00.387269 19521 net.cpp:119] Setting up merge_banks
I0326 17:01:00.393833 19521 net.cpp:126] Top shape: 5 256 25 25 (800000)
I0326 17:01:00.393875 19521 layer_factory.hpp:74] Creating layer spatial_drop
I0326 17:01:00.394232 19521 net.cpp:89] 
I0326 17:01:00.394250 19521 net.cpp:90] Creating Layer spatial_drop
I0326 17:01:00.394261 19521 net.cpp:386] spatial_drop <- conv4
I0326 17:01:00.394273 19521 net.cpp:333] spatial_drop -> conv4 (in-place)
I0326 17:01:00.394287 19521 net.cpp:119] Setting up spatial_drop
I0326 17:01:00.394311 19521 net.cpp:126] Top shape: 5 256 25 25 (800000)
I0326 17:01:00.394346 19521 layer_factory.hpp:74] Creating layer conv5
I0326 17:01:00.394397 19521 net.cpp:89] 
I0326 17:01:00.394421 19521 net.cpp:90] Creating Layer conv5
I0326 17:01:00.394445 19521 net.cpp:386] conv5 <- conv4
I0326 17:01:00.394476 19521 net.cpp:344] conv5 -> conv5
I0326 17:01:00.394528 19521 net.cpp:119] Setting up conv5
I0326 17:01:00.748123 19521 net.cpp:126] Top shape: 5 512 25 25 (1600000)
I0326 17:01:00.748164 19521 layer_factory.hpp:74] Creating layer relu5
I0326 17:01:00.748199 19521 net.cpp:89] 
I0326 17:01:00.748205 19521 net.cpp:90] Creating Layer relu5
I0326 17:01:00.748213 19521 net.cpp:386] relu5 <- conv5
I0326 17:01:00.748225 19521 net.cpp:333] relu5 -> conv5 (in-place)
I0326 17:01:00.748237 19521 net.cpp:119] Setting up relu5
I0326 17:01:00.748313 19521 net.cpp:126] Top shape: 5 512 25 25 (1600000)
I0326 17:01:00.748323 19521 layer_factory.hpp:74] Creating layer conv6
I0326 17:01:00.748345 19521 net.cpp:89] 
I0326 17:01:00.748353 19521 net.cpp:90] Creating Layer conv6
I0326 17:01:00.748373 19521 net.cpp:386] conv6 <- conv5
I0326 17:01:00.748384 19521 net.cpp:344] conv6 -> conv6
I0326 17:01:00.748436 19521 net.cpp:119] Setting up conv6
I0326 17:01:00.752912 19521 net.cpp:126] Top shape: 5 256 25 25 (800000)
I0326 17:01:00.752940 19521 layer_factory.hpp:74] Creating layer relu6
I0326 17:01:00.752956 19521 net.cpp:89] 
I0326 17:01:00.752962 19521 net.cpp:90] Creating Layer relu6
I0326 17:01:00.752969 19521 net.cpp:386] relu6 <- conv6
I0326 17:01:00.752979 19521 net.cpp:333] relu6 -> conv6 (in-place)
I0326 17:01:00.752990 19521 net.cpp:119] Setting up relu6
I0326 17:01:00.753067 19521 net.cpp:126] Top shape: 5 256 25 25 (800000)
I0326 17:01:00.753077 19521 layer_factory.hpp:74] Creating layer conv7
I0326 17:01:00.753092 19521 net.cpp:89] 
I0326 17:01:00.753096 19521 net.cpp:90] Creating Layer conv7
I0326 17:01:00.753118 19521 net.cpp:386] conv7 <- conv6
I0326 17:01:00.753128 19521 net.cpp:344] conv7 -> conv7
I0326 17:01:00.753162 19521 net.cpp:119] Setting up conv7
I0326 17:01:00.755547 19521 net.cpp:126] Top shape: 5 256 25 25 (800000)
I0326 17:01:00.755563 19521 layer_factory.hpp:74] Creating layer relu7
I0326 17:01:00.755573 19521 net.cpp:89] 
I0326 17:01:00.755578 19521 net.cpp:90] Creating Layer relu7
I0326 17:01:00.755584 19521 net.cpp:386] relu7 <- conv7
I0326 17:01:00.755591 19521 net.cpp:333] relu7 -> conv7 (in-place)
I0326 17:01:00.755599 19521 net.cpp:119] Setting up relu7
I0326 17:01:00.755774 19521 net.cpp:126] Top shape: 5 256 25 25 (800000)
I0326 17:01:00.755784 19521 layer_factory.hpp:74] Creating layer conv7_relu7_0_split
I0326 17:01:00.755795 19521 net.cpp:89] 
I0326 17:01:00.755801 19521 net.cpp:90] Creating Layer conv7_relu7_0_split
I0326 17:01:00.755807 19521 net.cpp:386] conv7_relu7_0_split <- conv7
I0326 17:01:00.755815 19521 net.cpp:344] conv7_relu7_0_split -> conv7_relu7_0_split_0
I0326 17:01:00.755826 19521 net.cpp:344] conv7_relu7_0_split -> conv7_relu7_0_split_1
I0326 17:01:00.755836 19521 net.cpp:119] Setting up conv7_relu7_0_split
I0326 17:01:00.755853 19521 net.cpp:126] Top shape: 5 256 25 25 (800000)
I0326 17:01:00.755883 19521 net.cpp:126] Top shape: 5 256 25 25 (800000)
I0326 17:01:00.755910 19521 layer_factory.hpp:74] Creating layer conv8
I0326 17:01:00.755938 19521 net.cpp:89] 
I0326 17:01:00.755960 19521 net.cpp:90] Creating Layer conv8
I0326 17:01:00.755982 19521 net.cpp:386] conv8 <- conv7_relu7_0_split_0
I0326 17:01:00.756032 19521 net.cpp:344] conv8 -> conv8
I0326 17:01:00.756064 19521 net.cpp:119] Setting up conv8
I0326 17:01:00.756547 19521 net.cpp:126] Top shape: 5 19 25 25 (59375)
I0326 17:01:00.756563 19521 layer_factory.hpp:74] Creating layer conv3_b2r
I0326 17:01:00.756572 19521 net.cpp:89] 
I0326 17:01:00.756578 19521 net.cpp:90] Creating Layer conv3_b2r
I0326 17:01:00.756584 19521 net.cpp:386] conv3_b2r <- conv3_b2_relu3_b2_0_split_1
I0326 17:01:00.756592 19521 net.cpp:386] conv3_b2r <- conv3_b1_relu3_b1_0_split_1
I0326 17:01:00.756603 19521 net.cpp:344] conv3_b2r -> conv3_b2r
I0326 17:01:00.756613 19521 net.cpp:119] Setting up conv3_b2r
I0326 17:01:00.756655 19521 net.cpp:126] Top shape: 5 128 25 25 (400000)
I0326 17:01:00.756680 19521 layer_factory.hpp:74] Creating layer concat_f
I0326 17:01:00.756708 19521 net.cpp:89] 
I0326 17:01:00.756738 19521 net.cpp:90] Creating Layer concat_f
I0326 17:01:00.756768 19521 net.cpp:386] concat_f <- conv3_b1_relu3_b1_0_split_2
I0326 17:01:00.756798 19521 net.cpp:386] concat_f <- conv3_b2r
I0326 17:01:00.756822 19521 net.cpp:386] concat_f <- conv7_relu7_0_split_1
I0326 17:01:00.756840 19521 net.cpp:344] concat_f -> concat_f
I0326 17:01:00.756857 19521 net.cpp:119] Setting up concat_f
I0326 17:01:00.756868 19521 net.cpp:126] Top shape: 5 512 25 25 (1600000)
I0326 17:01:00.756875 19521 layer_factory.hpp:74] Creating layer concat_f_concat_f_0_split
I0326 17:01:00.756883 19521 net.cpp:89] 
I0326 17:01:00.756888 19521 net.cpp:90] Creating Layer concat_f_concat_f_0_split
I0326 17:01:00.756894 19521 net.cpp:386] concat_f_concat_f_0_split <- concat_f
I0326 17:01:00.756904 19521 net.cpp:344] concat_f_concat_f_0_split -> concat_f_concat_f_0_split_0
I0326 17:01:00.756942 19521 net.cpp:344] concat_f_concat_f_0_split -> concat_f_concat_f_0_split_1
I0326 17:01:00.756952 19521 net.cpp:119] Setting up concat_f_concat_f_0_split
I0326 17:01:00.756961 19521 net.cpp:126] Top shape: 5 512 25 25 (1600000)
I0326 17:01:00.756968 19521 net.cpp:126] Top shape: 5 512 25 25 (1600000)
I0326 17:01:00.756974 19521 layer_factory.hpp:74] Creating layer conv1_f
I0326 17:01:00.756986 19521 net.cpp:89] 
I0326 17:01:00.756994 19521 net.cpp:90] Creating Layer conv1_f
I0326 17:01:00.756999 19521 net.cpp:386] conv1_f <- concat_f_concat_f_0_split_0
I0326 17:01:00.757007 19521 net.cpp:344] conv1_f -> conv1_f
I0326 17:01:00.757019 19521 net.cpp:119] Setting up conv1_f
I0326 17:01:00.808387 19521 net.cpp:126] Top shape: 5 64 25 25 (200000)
I0326 17:01:00.808424 19521 layer_factory.hpp:74] Creating layer relu1_f
I0326 17:01:00.808439 19521 net.cpp:89] 
I0326 17:01:00.808445 19521 net.cpp:90] Creating Layer relu1_f
I0326 17:01:00.808452 19521 net.cpp:386] relu1_f <- conv1_f
I0326 17:01:00.808465 19521 net.cpp:333] relu1_f -> conv1_f (in-place)
I0326 17:01:00.808476 19521 net.cpp:119] Setting up relu1_f
I0326 17:01:00.808555 19521 net.cpp:126] Top shape: 5 64 25 25 (200000)
I0326 17:01:00.808591 19521 layer_factory.hpp:74] Creating layer conv2_f
I0326 17:01:00.808622 19521 net.cpp:89] 
I0326 17:01:00.808653 19521 net.cpp:90] Creating Layer conv2_f
I0326 17:01:00.808683 19521 net.cpp:386] conv2_f <- conv1_f
I0326 17:01:00.808712 19521 net.cpp:344] conv2_f -> conv2_f
I0326 17:01:00.808749 19521 net.cpp:119] Setting up conv2_f
I0326 17:01:00.831126 19521 net.cpp:126] Top shape: 5 64 25 25 (200000)
I0326 17:01:00.831166 19521 layer_factory.hpp:74] Creating layer relu2_f
I0326 17:01:00.831182 19521 net.cpp:89] 
I0326 17:01:00.831188 19521 net.cpp:90] Creating Layer relu2_f
I0326 17:01:00.831195 19521 net.cpp:386] relu2_f <- conv2_f
I0326 17:01:00.831212 19521 net.cpp:333] relu2_f -> conv2_f (in-place)
I0326 17:01:00.831251 19521 net.cpp:119] Setting up relu2_f
I0326 17:01:00.831347 19521 net.cpp:126] Top shape: 5 64 25 25 (200000)
I0326 17:01:00.831360 19521 layer_factory.hpp:74] Creating layer conv3_f
I0326 17:01:00.831373 19521 net.cpp:89] 
I0326 17:01:00.831378 19521 net.cpp:90] Creating Layer conv3_f
I0326 17:01:00.831384 19521 net.cpp:386] conv3_f <- conv2_f
I0326 17:01:00.831394 19521 net.cpp:344] conv3_f -> conv3_f
I0326 17:01:00.831405 19521 net.cpp:119] Setting up conv3_f
I0326 17:01:00.853826 19521 net.cpp:126] Top shape: 5 64 25 25 (200000)
I0326 17:01:00.853869 19521 layer_factory.hpp:74] Creating layer relu3_f
I0326 17:01:00.853893 19521 net.cpp:89] 
I0326 17:01:00.853899 19521 net.cpp:90] Creating Layer relu3_f
I0326 17:01:00.853907 19521 net.cpp:386] relu3_f <- conv3_f
I0326 17:01:00.853926 19521 net.cpp:333] relu3_f -> conv3_f (in-place)
I0326 17:01:00.853974 19521 net.cpp:119] Setting up relu3_f
I0326 17:01:00.854069 19521 net.cpp:126] Top shape: 5 64 25 25 (200000)
I0326 17:01:00.854080 19521 layer_factory.hpp:74] Creating layer conv4_f
I0326 17:01:00.854094 19521 net.cpp:89] 
I0326 17:01:00.854100 19521 net.cpp:90] Creating Layer conv4_f
I0326 17:01:00.854106 19521 net.cpp:386] conv4_f <- conv3_f
I0326 17:01:00.854125 19521 net.cpp:344] conv4_f -> conv4_f
I0326 17:01:00.854156 19521 net.cpp:119] Setting up conv4_f
I0326 17:01:00.855008 19521 net.cpp:126] Top shape: 5 256 25 25 (800000)
I0326 17:01:00.855026 19521 layer_factory.hpp:74] Creating layer relu4_f
I0326 17:01:00.855036 19521 net.cpp:89] 
I0326 17:01:00.855041 19521 net.cpp:90] Creating Layer relu4_f
I0326 17:01:00.855047 19521 net.cpp:386] relu4_f <- conv4_f
I0326 17:01:00.855054 19521 net.cpp:333] relu4_f -> conv4_f (in-place)
I0326 17:01:00.855070 19521 net.cpp:119] Setting up relu4_f
I0326 17:01:00.855242 19521 net.cpp:126] Top shape: 5 256 25 25 (800000)
I0326 17:01:00.855253 19521 layer_factory.hpp:74] Creating layer conv5_f
I0326 17:01:00.855263 19521 net.cpp:89] 
I0326 17:01:00.855269 19521 net.cpp:90] Creating Layer conv5_f
I0326 17:01:00.855274 19521 net.cpp:386] conv5_f <- conv4_f
I0326 17:01:00.855329 19521 net.cpp:344] conv5_f -> conv5_f
I0326 17:01:00.855378 19521 net.cpp:119] Setting up conv5_f
I0326 17:01:00.855865 19521 net.cpp:126] Top shape: 5 19 25 25 (59375)
I0326 17:01:00.855887 19521 layer_factory.hpp:74] Creating layer conv1_ref
I0326 17:01:00.855900 19521 net.cpp:89] 
I0326 17:01:00.855934 19521 net.cpp:90] Creating Layer conv1_ref
I0326 17:01:00.855973 19521 net.cpp:386] conv1_ref <- concat_f_concat_f_0_split_1
I0326 17:01:00.856000 19521 net.cpp:344] conv1_ref -> conv1_ref
I0326 17:01:00.856045 19521 net.cpp:119] Setting up conv1_ref
I0326 17:01:00.876370 19521 net.cpp:126] Top shape: 5 1216 25 25 (3800000)
I0326 17:01:00.876406 19521 layer_factory.hpp:74] Creating layer relu1_ref
I0326 17:01:00.876425 19521 net.cpp:89] 
I0326 17:01:00.876431 19521 net.cpp:90] Creating Layer relu1_ref
I0326 17:01:00.876446 19521 net.cpp:386] relu1_ref <- conv1_ref
I0326 17:01:00.876484 19521 net.cpp:333] relu1_ref -> conv1_ref (in-place)
I0326 17:01:00.876533 19521 net.cpp:119] Setting up relu1_ref
I0326 17:01:00.876628 19521 net.cpp:126] Top shape: 5 1216 25 25 (3800000)
I0326 17:01:00.876639 19521 layer_factory.hpp:74] Creating layer conv2_ref
I0326 17:01:00.876653 19521 net.cpp:89] 
I0326 17:01:00.876685 19521 net.cpp:90] Creating Layer conv2_ref
I0326 17:01:00.876708 19521 net.cpp:386] conv2_ref <- conv1_ref
I0326 17:01:00.876739 19521 net.cpp:344] conv2_ref -> conv2_ref
I0326 17:01:00.876768 19521 net.cpp:119] Setting up conv2_ref
I0326 17:01:01.001147 19521 net.cpp:126] Top shape: 5 1216 25 25 (3800000)
I0326 17:01:01.001183 19521 layer_factory.hpp:74] Creating layer relu2_ref
I0326 17:01:01.001201 19521 net.cpp:89] 
I0326 17:01:01.001207 19521 net.cpp:90] Creating Layer relu2_ref
I0326 17:01:01.001215 19521 net.cpp:386] relu2_ref <- conv2_ref
I0326 17:01:01.001225 19521 net.cpp:333] relu2_ref -> conv2_ref (in-place)
I0326 17:01:01.001238 19521 net.cpp:119] Setting up relu2_ref
I0326 17:01:01.001312 19521 net.cpp:126] Top shape: 5 1216 25 25 (3800000)
I0326 17:01:01.001348 19521 layer_factory.hpp:74] Creating layer conv3_ref
I0326 17:01:01.001389 19521 net.cpp:89] 
I0326 17:01:01.001421 19521 net.cpp:90] Creating Layer conv3_ref
I0326 17:01:01.001451 19521 net.cpp:386] conv3_ref <- conv2_ref
I0326 17:01:01.001482 19521 net.cpp:344] conv3_ref -> conv3_ref
I0326 17:01:01.001531 19521 net.cpp:119] Setting up conv3_ref
I0326 17:01:01.415709 19521 net.cpp:126] Top shape: 5 1216 25 25 (3800000)
I0326 17:01:01.415748 19521 layer_factory.hpp:74] Creating layer relu3_ref
I0326 17:01:01.415762 19521 net.cpp:89] 
I0326 17:01:01.415768 19521 net.cpp:90] Creating Layer relu3_ref
I0326 17:01:01.415776 19521 net.cpp:386] relu3_ref <- conv3_ref
I0326 17:01:01.415789 19521 net.cpp:333] relu3_ref -> conv3_ref (in-place)
I0326 17:01:01.415802 19521 net.cpp:119] Setting up relu3_ref
I0326 17:01:01.415879 19521 net.cpp:126] Top shape: 5 1216 25 25 (3800000)
I0326 17:01:01.415913 19521 layer_factory.hpp:74] Creating layer conv4_ref
I0326 17:01:01.415951 19521 net.cpp:89] 
I0326 17:01:01.415959 19521 net.cpp:90] Creating Layer conv4_ref
I0326 17:01:01.415966 19521 net.cpp:386] conv4_ref <- conv3_ref
I0326 17:01:01.415992 19521 net.cpp:344] conv4_ref -> conv4_ref
I0326 17:01:01.416024 19521 net.cpp:119] Setting up conv4_ref
I0326 17:01:01.863051 19521 net.cpp:126] Top shape: 5 1216 25 25 (3800000)
I0326 17:01:01.863090 19521 layer_factory.hpp:74] Creating layer relu4_ref
I0326 17:01:01.863107 19521 net.cpp:89] 
I0326 17:01:01.863113 19521 net.cpp:90] Creating Layer relu4_ref
I0326 17:01:01.863121 19521 net.cpp:386] relu4_ref <- conv4_ref
I0326 17:01:01.863133 19521 net.cpp:333] relu4_ref -> conv4_ref (in-place)
I0326 17:01:01.863145 19521 net.cpp:119] Setting up relu4_ref
I0326 17:01:01.863337 19521 net.cpp:126] Top shape: 5 1216 25 25 (3800000)
I0326 17:01:01.863349 19521 layer_factory.hpp:74] Creating layer conv5_ref
I0326 17:01:01.863363 19521 net.cpp:89] 
I0326 17:01:01.863369 19521 net.cpp:90] Creating Layer conv5_ref
I0326 17:01:01.863375 19521 net.cpp:386] conv5_ref <- conv4_ref
I0326 17:01:01.863399 19521 net.cpp:344] conv5_ref -> conv5_ref
I0326 17:01:01.863445 19521 net.cpp:119] Setting up conv5_ref
I0326 17:01:01.879137 19521 net.cpp:126] Top shape: 5 4864 25 25 (15200000)
I0326 17:01:01.879182 19521 layer_factory.hpp:74] Creating layer relu5_ref
I0326 17:01:01.879201 19521 net.cpp:89] 
I0326 17:01:01.879207 19521 net.cpp:90] Creating Layer relu5_ref
I0326 17:01:01.879216 19521 net.cpp:386] relu5_ref <- conv5_ref
I0326 17:01:01.879230 19521 net.cpp:333] relu5_ref -> conv5_ref (in-place)
I0326 17:01:01.879245 19521 net.cpp:119] Setting up relu5_ref
I0326 17:01:01.879346 19521 net.cpp:126] Top shape: 5 4864 25 25 (15200000)
I0326 17:01:01.879357 19521 layer_factory.hpp:74] Creating layer conv6_ref
I0326 17:01:01.879374 19521 net.cpp:89] 
I0326 17:01:01.879379 19521 net.cpp:90] Creating Layer conv6_ref
I0326 17:01:01.879385 19521 net.cpp:386] conv6_ref <- conv5_ref
I0326 17:01:01.879396 19521 net.cpp:344] conv6_ref -> conv6_ref
I0326 17:01:01.879431 19521 net.cpp:119] Setting up conv6_ref
I0326 17:01:01.885370 19521 net.cpp:126] Top shape: 5 19 25 25 (59375)
I0326 17:01:01.885412 19521 layer_factory.hpp:74] Creating layer refined_heat_maps
I0326 17:01:01.885432 19521 net.cpp:89] 
I0326 17:01:01.885438 19521 net.cpp:90] Creating Layer refined_heat_maps
I0326 17:01:01.885447 19521 net.cpp:386] refined_heat_maps <- conv8
I0326 17:01:01.885457 19521 net.cpp:386] refined_heat_maps <- conv5_f
I0326 17:01:01.885473 19521 net.cpp:386] refined_heat_maps <- conv6_ref
I0326 17:01:01.885484 19521 net.cpp:344] refined_heat_maps -> refined_heat_maps
I0326 17:01:01.885537 19521 net.cpp:119] Setting up refined_heat_maps
I0326 17:01:01.885555 19521 net.cpp:126] Top shape: 5 19 25 25 (59375)
I0326 17:01:01.885561 19521 layer_factory.hpp:74] Creating layer pred_heat_maps
I0326 17:01:01.885571 19521 net.cpp:89] 
I0326 17:01:01.885578 19521 net.cpp:90] Creating Layer pred_heat_maps
I0326 17:01:01.885587 19521 net.cpp:386] pred_heat_maps <- refined_heat_maps
I0326 17:01:01.885598 19521 net.cpp:386] pred_heat_maps <- data_b1_data_b1_0_split_2
I0326 17:01:01.885608 19521 net.cpp:344] pred_heat_maps -> pred_heat_maps
I0326 17:01:01.885619 19521 net.cpp:119] Setting up pred_heat_maps
I0326 17:01:01.885632 19521 net.cpp:126] Top shape: 5 19 100 100 (950000)
I0326 17:01:01.885638 19521 layer_factory.hpp:74] Creating layer pred_coords
I0326 17:01:01.886104 19521 net.cpp:89] 
I0326 17:01:01.886121 19521 net.cpp:90] Creating Layer pred_coords
I0326 17:01:01.886127 19521 net.cpp:386] pred_coords <- pred_heat_maps
I0326 17:01:01.886137 19521 net.cpp:344] pred_coords -> pred_coords
I0326 17:01:01.886185 19521 net.cpp:119] Setting up pred_coords
I0326 17:01:01.886203 19521 coords_from_heat_map_layer.cpp:82] heat_map_a: 1
I0326 17:01:01.886242 19521 coords_from_heat_map_layer.cpp:83] heat_map_b: 0
I0326 17:01:01.886265 19521 coords_from_heat_map_layer.cpp:84] topK: 30
I0326 17:01:01.886289 19521 net.cpp:126] Top shape: 5 38 1 1 (190)
I0326 17:01:01.886314 19521 layer_factory.hpp:74] Creating layer pred_coordsr
I0326 17:01:01.886826 19521 net.cpp:89] 
I0326 17:01:01.886847 19521 net.cpp:90] Creating Layer pred_coordsr
I0326 17:01:01.886864 19521 net.cpp:386] pred_coordsr <- pred_coords
I0326 17:01:01.886874 19521 net.cpp:386] pred_coordsr <- aux_info_input_1_split_1
I0326 17:01:01.886891 19521 net.cpp:344] pred_coordsr -> pred_coordsr
I0326 17:01:01.886904 19521 net.cpp:119] Setting up pred_coordsr
I0326 17:01:01.886922 19521 net.cpp:126] Top shape: 5 38 1 1 (190)
I0326 17:01:01.886930 19521 net.cpp:175] pred_coordsr does not need backward computation.
I0326 17:01:01.886940 19521 net.cpp:175] pred_coords does not need backward computation.
I0326 17:01:01.886945 19521 net.cpp:175] pred_heat_maps does not need backward computation.
I0326 17:01:01.886950 19521 net.cpp:175] refined_heat_maps does not need backward computation.
I0326 17:01:01.886955 19521 net.cpp:175] conv6_ref does not need backward computation.
…
